…
2019-06-22 17:01:45.356479: I tensorflow/core/common_runtime/process_util.cc:69] Creating new thread pool with default inter op setting: 2. Tune using inter_op_parallelism_threads for best performance.
Using TensorFlow backend.
/scratch/amourav/Python/OCT-Image-Classification/modelOutput/metaClf_2019-06-15_/ResNet50/ResNet50.hdf5
__________________________________________________________________________________________________
Layer (type)                    Output Shape         Param #     Connected to                     
==================================================================================================
input_3 (InputLayer)            (None, 299, 299, 3)  0                                            
__________________________________________________________________________________________________
conv1_pad (ZeroPadding2D)       (None, 305, 305, 3)  0           input_3[0][0]                    
__________________________________________________________________________________________________
conv1 (Conv2D)                  (None, 150, 150, 64) 9472        conv1_pad[0][0]                  
__________________________________________________________________________________________________
bn_conv1 (BatchNormalization)   (None, 150, 150, 64) 256         conv1[0][0]                      
__________________________________________________________________________________________________
activation_95 (Activation)      (None, 150, 150, 64) 0           bn_conv1[0][0]                   
__________________________________________________________________________________________________
pool1_pad (ZeroPadding2D)       (None, 152, 152, 64) 0           activation_95[0][0]              
__________________________________________________________________________________________________
max_pooling2d_5 (MaxPooling2D)  (None, 75, 75, 64)   0           pool1_pad[0][0]                  
__________________________________________________________________________________________________
res2a_branch2a (Conv2D)         (None, 75, 75, 64)   4160        max_pooling2d_5[0][0]            
__________________________________________________________________________________________________
bn2a_branch2a (BatchNormalizati (None, 75, 75, 64)   256         res2a_branch2a[0][0]             
__________________________________________________________________________________________________
activation_96 (Activation)      (None, 75, 75, 64)   0           bn2a_branch2a[0][0]              
__________________________________________________________________________________________________
res2a_branch2b (Conv2D)         (None, 75, 75, 64)   36928       activation_96[0][0]              
__________________________________________________________________________________________________
bn2a_branch2b (BatchNormalizati (None, 75, 75, 64)   256         res2a_branch2b[0][0]             
__________________________________________________________________________________________________
activation_97 (Activation)      (None, 75, 75, 64)   0           bn2a_branch2b[0][0]              
__________________________________________________________________________________________________
res2a_branch2c (Conv2D)         (None, 75, 75, 256)  16640       activation_97[0][0]              
__________________________________________________________________________________________________
res2a_branch1 (Conv2D)          (None, 75, 75, 256)  16640       max_pooling2d_5[0][0]            
__________________________________________________________________________________________________
bn2a_branch2c (BatchNormalizati (None, 75, 75, 256)  1024        res2a_branch2c[0][0]             
__________________________________________________________________________________________________
bn2a_branch1 (BatchNormalizatio (None, 75, 75, 256)  1024        res2a_branch1[0][0]              
__________________________________________________________________________________________________
add_1 (Add)                     (None, 75, 75, 256)  0           bn2a_branch2c[0][0]              
                                                                 bn2a_branch1[0][0]               
__________________________________________________________________________________________________
activation_98 (Activation)      (None, 75, 75, 256)  0           add_1[0][0]                      
__________________________________________________________________________________________________
res2b_branch2a (Conv2D)         (None, 75, 75, 64)   16448       activation_98[0][0]              
__________________________________________________________________________________________________
bn2b_branch2a (BatchNormalizati (None, 75, 75, 64)   256         res2b_branch2a[0][0]             
__________________________________________________________________________________________________
activation_99 (Activation)      (None, 75, 75, 64)   0           bn2b_branch2a[0][0]              
__________________________________________________________________________________________________
res2b_branch2b (Conv2D)         (None, 75, 75, 64)   36928       activation_99[0][0]              
__________________________________________________________________________________________________
bn2b_branch2b (BatchNormalizati (None, 75, 75, 64)   256         res2b_branch2b[0][0]             
__________________________________________________________________________________________________
activation_100 (Activation)     (None, 75, 75, 64)   0           bn2b_branch2b[0][0]              
__________________________________________________________________________________________________
res2b_branch2c (Conv2D)         (None, 75, 75, 256)  16640       activation_100[0][0]             
__________________________________________________________________________________________________
bn2b_branch2c (BatchNormalizati (None, 75, 75, 256)  1024        res2b_branch2c[0][0]             
__________________________________________________________________________________________________
add_2 (Add)                     (None, 75, 75, 256)  0           bn2b_branch2c[0][0]              
                                                                 activation_98[0][0]              
__________________________________________________________________________________________________
activation_101 (Activation)     (None, 75, 75, 256)  0           add_2[0][0]                      
__________________________________________________________________________________________________
res2c_branch2a (Conv2D)         (None, 75, 75, 64)   16448       activation_101[0][0]             
__________________________________________________________________________________________________
bn2c_branch2a (BatchNormalizati (None, 75, 75, 64)   256         res2c_branch2a[0][0]             
__________________________________________________________________________________________________
activation_102 (Activation)     (None, 75, 75, 64)   0           bn2c_branch2a[0][0]              
__________________________________________________________________________________________________
res2c_branch2b (Conv2D)         (None, 75, 75, 64)   36928       activation_102[0][0]             
__________________________________________________________________________________________________
bn2c_branch2b (BatchNormalizati (None, 75, 75, 64)   256         res2c_branch2b[0][0]             
__________________________________________________________________________________________________
activation_103 (Activation)     (None, 75, 75, 64)   0           bn2c_branch2b[0][0]              
__________________________________________________________________________________________________
res2c_branch2c (Conv2D)         (None, 75, 75, 256)  16640       activation_103[0][0]             
__________________________________________________________________________________________________
bn2c_branch2c (BatchNormalizati (None, 75, 75, 256)  1024        res2c_branch2c[0][0]             
__________________________________________________________________________________________________
add_3 (Add)                     (None, 75, 75, 256)  0           bn2c_branch2c[0][0]              
                                                                 activation_101[0][0]             
__________________________________________________________________________________________________
activation_104 (Activation)     (None, 75, 75, 256)  0           add_3[0][0]                      
__________________________________________________________________________________________________
res3a_branch2a (Conv2D)         (None, 38, 38, 128)  32896       activation_104[0][0]             
__________________________________________________________________________________________________
bn3a_branch2a (BatchNormalizati (None, 38, 38, 128)  512         res3a_branch2a[0][0]             
__________________________________________________________________________________________________
activation_105 (Activation)     (None, 38, 38, 128)  0           bn3a_branch2a[0][0]              
__________________________________________________________________________________________________
res3a_branch2b (Conv2D)         (None, 38, 38, 128)  147584      activation_105[0][0]             
__________________________________________________________________________________________________
bn3a_branch2b (BatchNormalizati (None, 38, 38, 128)  512         res3a_branch2b[0][0]             
__________________________________________________________________________________________________
activation_106 (Activation)     (None, 38, 38, 128)  0           bn3a_branch2b[0][0]              
__________________________________________________________________________________________________
res3a_branch2c (Conv2D)         (None, 38, 38, 512)  66048       activation_106[0][0]             
__________________________________________________________________________________________________
res3a_branch1 (Conv2D)          (None, 38, 38, 512)  131584      activation_104[0][0]             
__________________________________________________________________________________________________
bn3a_branch2c (BatchNormalizati (None, 38, 38, 512)  2048        res3a_branch2c[0][0]             
__________________________________________________________________________________________________
bn3a_branch1 (BatchNormalizatio (None, 38, 38, 512)  2048        res3a_branch1[0][0]              
__________________________________________________________________________________________________
add_4 (Add)                     (None, 38, 38, 512)  0           bn3a_branch2c[0][0]              
                                                                 bn3a_branch1[0][0]               
__________________________________________________________________________________________________
activation_107 (Activation)     (None, 38, 38, 512)  0           add_4[0][0]                      
__________________________________________________________________________________________________
res3b_branch2a (Conv2D)         (None, 38, 38, 128)  65664       activation_107[0][0]             
__________________________________________________________________________________________________
bn3b_branch2a (BatchNormalizati (None, 38, 38, 128)  512         res3b_branch2a[0][0]             
__________________________________________________________________________________________________
activation_108 (Activation)     (None, 38, 38, 128)  0           bn3b_branch2a[0][0]              
__________________________________________________________________________________________________
res3b_branch2b (Conv2D)         (None, 38, 38, 128)  147584      activation_108[0][0]             
__________________________________________________________________________________________________
bn3b_branch2b (BatchNormalizati (None, 38, 38, 128)  512         res3b_branch2b[0][0]             
__________________________________________________________________________________________________
activation_109 (Activation)     (None, 38, 38, 128)  0           bn3b_branch2b[0][0]              
__________________________________________________________________________________________________
res3b_branch2c (Conv2D)         (None, 38, 38, 512)  66048       activation_109[0][0]             
__________________________________________________________________________________________________
bn3b_branch2c (BatchNormalizati (None, 38, 38, 512)  2048        res3b_branch2c[0][0]             
__________________________________________________________________________________________________
add_5 (Add)                     (None, 38, 38, 512)  0           bn3b_branch2c[0][0]              
                                                                 activation_107[0][0]             
__________________________________________________________________________________________________
activation_110 (Activation)     (None, 38, 38, 512)  0           add_5[0][0]                      
__________________________________________________________________________________________________
res3c_branch2a (Conv2D)         (None, 38, 38, 128)  65664       activation_110[0][0]             
__________________________________________________________________________________________________
bn3c_branch2a (BatchNormalizati (None, 38, 38, 128)  512         res3c_branch2a[0][0]             
__________________________________________________________________________________________________
activation_111 (Activation)     (None, 38, 38, 128)  0           bn3c_branch2a[0][0]              
__________________________________________________________________________________________________
res3c_branch2b (Conv2D)         (None, 38, 38, 128)  147584      activation_111[0][0]             
__________________________________________________________________________________________________
bn3c_branch2b (BatchNormalizati (None, 38, 38, 128)  512         res3c_branch2b[0][0]             
__________________________________________________________________________________________________
activation_112 (Activation)     (None, 38, 38, 128)  0           bn3c_branch2b[0][0]              
__________________________________________________________________________________________________
res3c_branch2c (Conv2D)         (None, 38, 38, 512)  66048       activation_112[0][0]             
__________________________________________________________________________________________________
bn3c_branch2c (BatchNormalizati (None, 38, 38, 512)  2048        res3c_branch2c[0][0]             
__________________________________________________________________________________________________
add_6 (Add)                     (None, 38, 38, 512)  0           bn3c_branch2c[0][0]              
                                                                 activation_110[0][0]             
__________________________________________________________________________________________________
activation_113 (Activation)     (None, 38, 38, 512)  0           add_6[0][0]                      
__________________________________________________________________________________________________
res3d_branch2a (Conv2D)         (None, 38, 38, 128)  65664       activation_113[0][0]             
__________________________________________________________________________________________________
bn3d_branch2a (BatchNormalizati (None, 38, 38, 128)  512         res3d_branch2a[0][0]             
__________________________________________________________________________________________________
activation_114 (Activation)     (None, 38, 38, 128)  0           bn3d_branch2a[0][0]              
__________________________________________________________________________________________________
res3d_branch2b (Conv2D)         (None, 38, 38, 128)  147584      activation_114[0][0]             
__________________________________________________________________________________________________
bn3d_branch2b (BatchNormalizati (None, 38, 38, 128)  512         res3d_branch2b[0][0]             
__________________________________________________________________________________________________
activation_115 (Activation)     (None, 38, 38, 128)  0           bn3d_branch2b[0][0]              
__________________________________________________________________________________________________
res3d_branch2c (Conv2D)         (None, 38, 38, 512)  66048       activation_115[0][0]             
__________________________________________________________________________________________________
bn3d_branch2c (BatchNormalizati (None, 38, 38, 512)  2048        res3d_branch2c[0][0]             
__________________________________________________________________________________________________
add_7 (Add)                     (None, 38, 38, 512)  0           bn3d_branch2c[0][0]              
                                                                 activation_113[0][0]             
__________________________________________________________________________________________________
activation_116 (Activation)     (None, 38, 38, 512)  0           add_7[0][0]                      
__________________________________________________________________________________________________
res4a_branch2a (Conv2D)         (None, 19, 19, 256)  131328      activation_116[0][0]             
__________________________________________________________________________________________________
bn4a_branch2a (BatchNormalizati (None, 19, 19, 256)  1024        res4a_branch2a[0][0]             
__________________________________________________________________________________________________
activation_117 (Activation)     (None, 19, 19, 256)  0           bn4a_branch2a[0][0]              
__________________________________________________________________________________________________
res4a_branch2b (Conv2D)         (None, 19, 19, 256)  590080      activation_117[0][0]             
__________________________________________________________________________________________________
bn4a_branch2b (BatchNormalizati (None, 19, 19, 256)  1024        res4a_branch2b[0][0]             
__________________________________________________________________________________________________
activation_118 (Activation)     (None, 19, 19, 256)  0           bn4a_branch2b[0][0]              
__________________________________________________________________________________________________
res4a_branch2c (Conv2D)         (None, 19, 19, 1024) 263168      activation_118[0][0]             
__________________________________________________________________________________________________
res4a_branch1 (Conv2D)          (None, 19, 19, 1024) 525312      activation_116[0][0]             
__________________________________________________________________________________________________
bn4a_branch2c (BatchNormalizati (None, 19, 19, 1024) 4096        res4a_branch2c[0][0]             
__________________________________________________________________________________________________
bn4a_branch1 (BatchNormalizatio (None, 19, 19, 1024) 4096        res4a_branch1[0][0]              
__________________________________________________________________________________________________
add_8 (Add)                     (None, 19, 19, 1024) 0           bn4a_branch2c[0][0]              
                                                                 bn4a_branch1[0][0]               
__________________________________________________________________________________________________
activation_119 (Activation)     (None, 19, 19, 1024) 0           add_8[0][0]                      
__________________________________________________________________________________________________
res4b_branch2a (Conv2D)         (None, 19, 19, 256)  262400      activation_119[0][0]             
__________________________________________________________________________________________________
bn4b_branch2a (BatchNormalizati (None, 19, 19, 256)  1024        res4b_branch2a[0][0]             
__________________________________________________________________________________________________
activation_120 (Activation)     (None, 19, 19, 256)  0           bn4b_branch2a[0][0]              
__________________________________________________________________________________________________
res4b_branch2b (Conv2D)         (None, 19, 19, 256)  590080      activation_120[0][0]             
__________________________________________________________________________________________________
bn4b_branch2b (BatchNormalizati (None, 19, 19, 256)  1024        res4b_branch2b[0][0]             
__________________________________________________________________________________________________
activation_121 (Activation)     (None, 19, 19, 256)  0           bn4b_branch2b[0][0]              
__________________________________________________________________________________________________
res4b_branch2c (Conv2D)         (None, 19, 19, 1024) 263168      activation_121[0][0]             
__________________________________________________________________________________________________
bn4b_branch2c (BatchNormalizati (None, 19, 19, 1024) 4096        res4b_branch2c[0][0]             
__________________________________________________________________________________________________
add_9 (Add)                     (None, 19, 19, 1024) 0           bn4b_branch2c[0][0]              
                                                                 activation_119[0][0]             
__________________________________________________________________________________________________
activation_122 (Activation)     (None, 19, 19, 1024) 0           add_9[0][0]                      
__________________________________________________________________________________________________
res4c_branch2a (Conv2D)         (None, 19, 19, 256)  262400      activation_122[0][0]             
__________________________________________________________________________________________________
bn4c_branch2a (BatchNormalizati (None, 19, 19, 256)  1024        res4c_branch2a[0][0]             
__________________________________________________________________________________________________
activation_123 (Activation)     (None, 19, 19, 256)  0           bn4c_branch2a[0][0]              
__________________________________________________________________________________________________
res4c_branch2b (Conv2D)         (None, 19, 19, 256)  590080      activation_123[0][0]             
__________________________________________________________________________________________________
bn4c_branch2b (BatchNormalizati (None, 19, 19, 256)  1024        res4c_branch2b[0][0]             
__________________________________________________________________________________________________
activation_124 (Activation)     (None, 19, 19, 256)  0           bn4c_branch2b[0][0]              
__________________________________________________________________________________________________
res4c_branch2c (Conv2D)         (None, 19, 19, 1024) 263168      activation_124[0][0]             
__________________________________________________________________________________________________
bn4c_branch2c (BatchNormalizati (None, 19, 19, 1024) 4096        res4c_branch2c[0][0]             
__________________________________________________________________________________________________
add_10 (Add)                    (None, 19, 19, 1024) 0           bn4c_branch2c[0][0]              
                                                                 activation_122[0][0]             
__________________________________________________________________________________________________
activation_125 (Activation)     (None, 19, 19, 1024) 0           add_10[0][0]                     
__________________________________________________________________________________________________
res4d_branch2a (Conv2D)         (None, 19, 19, 256)  262400      activation_125[0][0]             
__________________________________________________________________________________________________
bn4d_branch2a (BatchNormalizati (None, 19, 19, 256)  1024        res4d_branch2a[0][0]             
__________________________________________________________________________________________________
activation_126 (Activation)     (None, 19, 19, 256)  0           bn4d_branch2a[0][0]              
__________________________________________________________________________________________________
res4d_branch2b (Conv2D)         (None, 19, 19, 256)  590080      activation_126[0][0]             
__________________________________________________________________________________________________
bn4d_branch2b (BatchNormalizati (None, 19, 19, 256)  1024        res4d_branch2b[0][0]             
__________________________________________________________________________________________________
activation_127 (Activation)     (None, 19, 19, 256)  0           bn4d_branch2b[0][0]              
__________________________________________________________________________________________________
res4d_branch2c (Conv2D)         (None, 19, 19, 1024) 263168      activation_127[0][0]             
__________________________________________________________________________________________________
bn4d_branch2c (BatchNormalizati (None, 19, 19, 1024) 4096        res4d_branch2c[0][0]             
__________________________________________________________________________________________________
add_11 (Add)                    (None, 19, 19, 1024) 0           bn4d_branch2c[0][0]              
                                                                 activation_125[0][0]             
__________________________________________________________________________________________________
activation_128 (Activation)     (None, 19, 19, 1024) 0           add_11[0][0]                     
__________________________________________________________________________________________________
res4e_branch2a (Conv2D)         (None, 19, 19, 256)  262400      activation_128[0][0]             
__________________________________________________________________________________________________
bn4e_branch2a (BatchNormalizati (None, 19, 19, 256)  1024        res4e_branch2a[0][0]             
__________________________________________________________________________________________________
activation_129 (Activation)     (None, 19, 19, 256)  0           bn4e_branch2a[0][0]              
__________________________________________________________________________________________________
res4e_branch2b (Conv2D)         (None, 19, 19, 256)  590080      activation_129[0][0]             
__________________________________________________________________________________________________
bn4e_branch2b (BatchNormalizati (None, 19, 19, 256)  1024        res4e_branch2b[0][0]             
__________________________________________________________________________________________________
activation_130 (Activation)     (None, 19, 19, 256)  0           bn4e_branch2b[0][0]              
__________________________________________________________________________________________________
res4e_branch2c (Conv2D)         (None, 19, 19, 1024) 263168      activation_130[0][0]             
__________________________________________________________________________________________________
bn4e_branch2c (BatchNormalizati (None, 19, 19, 1024) 4096        res4e_branch2c[0][0]             
__________________________________________________________________________________________________
add_12 (Add)                    (None, 19, 19, 1024) 0           bn4e_branch2c[0][0]              
                                                                 activation_128[0][0]             
__________________________________________________________________________________________________
activation_131 (Activation)     (None, 19, 19, 1024) 0           add_12[0][0]                     
__________________________________________________________________________________________________
res4f_branch2a (Conv2D)         (None, 19, 19, 256)  262400      activation_131[0][0]             
__________________________________________________________________________________________________
bn4f_branch2a (BatchNormalizati (None, 19, 19, 256)  1024        res4f_branch2a[0][0]             
__________________________________________________________________________________________________
activation_132 (Activation)     (None, 19, 19, 256)  0           bn4f_branch2a[0][0]              
__________________________________________________________________________________________________
res4f_branch2b (Conv2D)         (None, 19, 19, 256)  590080      activation_132[0][0]             
__________________________________________________________________________________________________
bn4f_branch2b (BatchNormalizati (None, 19, 19, 256)  1024        res4f_branch2b[0][0]             
__________________________________________________________________________________________________
activation_133 (Activation)     (None, 19, 19, 256)  0           bn4f_branch2b[0][0]              
__________________________________________________________________________________________________
res4f_branch2c (Conv2D)         (None, 19, 19, 1024) 263168      activation_133[0][0]             
__________________________________________________________________________________________________
bn4f_branch2c (BatchNormalizati (None, 19, 19, 1024) 4096        res4f_branch2c[0][0]             
__________________________________________________________________________________________________
add_13 (Add)                    (None, 19, 19, 1024) 0           bn4f_branch2c[0][0]              
                                                                 activation_131[0][0]             
__________________________________________________________________________________________________
activation_134 (Activation)     (None, 19, 19, 1024) 0           add_13[0][0]                     
__________________________________________________________________________________________________
res5a_branch2a (Conv2D)         (None, 10, 10, 512)  524800      activation_134[0][0]             
__________________________________________________________________________________________________
bn5a_branch2a (BatchNormalizati (None, 10, 10, 512)  2048        res5a_branch2a[0][0]             
__________________________________________________________________________________________________
activation_135 (Activation)     (None, 10, 10, 512)  0           bn5a_branch2a[0][0]              
__________________________________________________________________________________________________
res5a_branch2b (Conv2D)         (None, 10, 10, 512)  2359808     activation_135[0][0]             
__________________________________________________________________________________________________
bn5a_branch2b (BatchNormalizati (None, 10, 10, 512)  2048        res5a_branch2b[0][0]             
__________________________________________________________________________________________________
activation_136 (Activation)     (None, 10, 10, 512)  0           bn5a_branch2b[0][0]              
__________________________________________________________________________________________________
res5a_branch2c (Conv2D)         (None, 10, 10, 2048) 1050624     activation_136[0][0]             
__________________________________________________________________________________________________
res5a_branch1 (Conv2D)          (None, 10, 10, 2048) 2099200     activation_134[0][0]             
__________________________________________________________________________________________________
bn5a_branch2c (BatchNormalizati (None, 10, 10, 2048) 8192        res5a_branch2c[0][0]             
__________________________________________________________________________________________________
bn5a_branch1 (BatchNormalizatio (None, 10, 10, 2048) 8192        res5a_branch1[0][0]              
__________________________________________________________________________________________________
add_14 (Add)                    (None, 10, 10, 2048) 0           bn5a_branch2c[0][0]              
                                                                 bn5a_branch1[0][0]               
__________________________________________________________________________________________________
activation_137 (Activation)     (None, 10, 10, 2048) 0           add_14[0][0]                     
__________________________________________________________________________________________________
res5b_branch2a (Conv2D)         (None, 10, 10, 512)  1049088     activation_137[0][0]             
__________________________________________________________________________________________________
bn5b_branch2a (BatchNormalizati (None, 10, 10, 512)  2048        res5b_branch2a[0][0]             
__________________________________________________________________________________________________
activation_138 (Activation)     (None, 10, 10, 512)  0           bn5b_branch2a[0][0]              
__________________________________________________________________________________________________
res5b_branch2b (Conv2D)         (None, 10, 10, 512)  2359808     activation_138[0][0]             
__________________________________________________________________________________________________
bn5b_branch2b (BatchNormalizati (None, 10, 10, 512)  2048        res5b_branch2b[0][0]             
__________________________________________________________________________________________________
activation_139 (Activation)     (None, 10, 10, 512)  0           bn5b_branch2b[0][0]              
__________________________________________________________________________________________________
res5b_branch2c (Conv2D)         (None, 10, 10, 2048) 1050624     activation_139[0][0]             
__________________________________________________________________________________________________
bn5b_branch2c (BatchNormalizati (None, 10, 10, 2048) 8192        res5b_branch2c[0][0]             
__________________________________________________________________________________________________
add_15 (Add)                    (None, 10, 10, 2048) 0           bn5b_branch2c[0][0]              
                                                                 activation_137[0][0]             
__________________________________________________________________________________________________
activation_140 (Activation)     (None, 10, 10, 2048) 0           add_15[0][0]                     
__________________________________________________________________________________________________
res5c_branch2a (Conv2D)         (None, 10, 10, 512)  1049088     activation_140[0][0]             
__________________________________________________________________________________________________
bn5c_branch2a (BatchNormalizati (None, 10, 10, 512)  2048        res5c_branch2a[0][0]             
__________________________________________________________________________________________________
activation_141 (Activation)     (None, 10, 10, 512)  0           bn5c_branch2a[0][0]              
__________________________________________________________________________________________________
res5c_branch2b (Conv2D)         (None, 10, 10, 512)  2359808     activation_141[0][0]             
__________________________________________________________________________________________________
bn5c_branch2b (BatchNormalizati (None, 10, 10, 512)  2048        res5c_branch2b[0][0]             
__________________________________________________________________________________________________
activation_142 (Activation)     (None, 10, 10, 512)  0           bn5c_branch2b[0][0]              
__________________________________________________________________________________________________
res5c_branch2c (Conv2D)         (None, 10, 10, 2048) 1050624     activation_142[0][0]             
__________________________________________________________________________________________________
bn5c_branch2c (BatchNormalizati (None, 10, 10, 2048) 8192        res5c_branch2c[0][0]             
__________________________________________________________________________________________________
add_16 (Add)                    (None, 10, 10, 2048) 0           bn5c_branch2c[0][0]              
                                                                 activation_140[0][0]             
__________________________________________________________________________________________________
activation_143 (Activation)     (None, 10, 10, 2048) 0           add_16[0][0]                     
__________________________________________________________________________________________________
global_average_pooling2d_2 (Glo (None, 2048)         0           activation_143[0][0]             
__________________________________________________________________________________________________
dense_5 (Dense)                 (None, 4)            8196        global_average_pooling2d_2[0][0] 
==================================================================================================
Total params: 23,595,908
Trainable params: 61,316
Non-trainable params: 23,534,592
__________________________________________________________________________________________________
