…
2019-06-05 16:37:37.289921: I tensorflow/core/common_runtime/gpu/gpu_device.cc:1115] Created TensorFlow device (/job:localhost/replica:0/task:0/device:GPU:0 with 11251 MB memory) -> physical GPU (device: 0, name: Tesla P100-PCIE-12GB, pci bus id: 0000:83:00.0, compute capability: 6.0)
2019-06-05 16:37:37.290573: I tensorflow/core/common_runtime/process_util.cc:69] Creating new thread pool with default inter op setting: 2. Tune using inter_op_parallelism_threads for best performance.
trn path: ../PreprocessedData/preprocessedForCNN/299x299/imgData_(299, 299, 3)_train_n1000.npy
data augmentation: False
VGG16
default_299_noprep
_________________________________________________________________
Layer (type)                 Output Shape              Param #   
=================================================================
input_1 (InputLayer)         (None, 299, 299, 3)       0         
_________________________________________________________________
block1_conv1 (Conv2D)        (None, 299, 299, 64)      1792      
_________________________________________________________________
block1_conv2 (Conv2D)        (None, 299, 299, 64)      36928     
_________________________________________________________________
block1_pool (MaxPooling2D)   (None, 149, 149, 64)      0         
_________________________________________________________________
block2_conv1 (Conv2D)        (None, 149, 149, 128)     73856     
_________________________________________________________________
block2_conv2 (Conv2D)        (None, 149, 149, 128)     147584    
_________________________________________________________________
block2_pool (MaxPooling2D)   (None, 74, 74, 128)       0         
_________________________________________________________________
block3_conv1 (Conv2D)        (None, 74, 74, 256)       295168    
_________________________________________________________________
block3_conv2 (Conv2D)        (None, 74, 74, 256)       590080    
_________________________________________________________________
block3_conv3 (Conv2D)        (None, 74, 74, 256)       590080    
_________________________________________________________________
block3_pool (MaxPooling2D)   (None, 37, 37, 256)       0         
_________________________________________________________________
block4_conv1 (Conv2D)        (None, 37, 37, 512)       1180160   
_________________________________________________________________
block4_conv2 (Conv2D)        (None, 37, 37, 512)       2359808   
_________________________________________________________________
block4_conv3 (Conv2D)        (None, 37, 37, 512)       2359808   
_________________________________________________________________
block4_pool (MaxPooling2D)   (None, 18, 18, 512)       0         
_________________________________________________________________
block5_conv1 (Conv2D)        (None, 18, 18, 512)       2359808   
_________________________________________________________________
block5_conv2 (Conv2D)        (None, 18, 18, 512)       2359808   
_________________________________________________________________
block5_conv3 (Conv2D)        (None, 18, 18, 512)       2359808   
_________________________________________________________________
block5_pool (MaxPooling2D)   (None, 9, 9, 512)         0         
_________________________________________________________________
flatten_1 (Flatten)          (None, 41472)             0         
_________________________________________________________________
dense_1 (Dense)              (None, 4096)              169873408 
_________________________________________________________________
dense_2 (Dense)              (None, 4096)              16781312  
_________________________________________________________________
dense_3 (Dense)              (None, 4)                 16388     
=================================================================
Total params: 201,385,796
Trainable params: 186,671,108
Non-trainable params: 14,714,688
_________________________________________________________________
None
Train on 1000 samples, validate on 32 samples
Epoch 1/250

  30/1000 [..............................] - ETA: 3:39 - loss: 1.5548 - acc: 0.2667 - categorical_crossentropy: 1.5548
…
