…
  File "/home/amourav/tensorflow/lib/python3.5/site-packages/keras/engine/training_utils.py", line 138, in standardize_input_data
    str(data_shape))
ValueError: Error when checking input: expected input_1 to have shape (299, 299, 3) but got array with shape (224, 224, 3)
trn path: ../PreprocessedData/preprocessedForCNN/299 x 299/imgData_(299, 299, 3)_train_n1000.npy
data augmentation: False
VGG16
default_299_noprep
_________________________________________________________________
Layer (type)                 Output Shape              Param #   
=================================================================
input_1 (InputLayer)         (None, 299, 299, 3)       0         
_________________________________________________________________
block1_conv1 (Conv2D)        (None, 299, 299, 64)      1792      
_________________________________________________________________
block1_conv2 (Conv2D)        (None, 299, 299, 64)      36928     
_________________________________________________________________
block1_pool (MaxPooling2D)   (None, 149, 149, 64)      0         
_________________________________________________________________
block2_conv1 (Conv2D)        (None, 149, 149, 128)     73856     
_________________________________________________________________
block2_conv2 (Conv2D)        (None, 149, 149, 128)     147584    
_________________________________________________________________
block2_pool (MaxPooling2D)   (None, 74, 74, 128)       0         
_________________________________________________________________
block3_conv1 (Conv2D)        (None, 74, 74, 256)       295168    
_________________________________________________________________
block3_conv2 (Conv2D)        (None, 74, 74, 256)       590080    
_________________________________________________________________
block3_conv3 (Conv2D)        (None, 74, 74, 256)       590080    
_________________________________________________________________
block3_pool (MaxPooling2D)   (None, 37, 37, 256)       0         
_________________________________________________________________
block4_conv1 (Conv2D)        (None, 37, 37, 512)       1180160   
_________________________________________________________________
block4_conv2 (Conv2D)        (None, 37, 37, 512)       2359808   
_________________________________________________________________
block4_conv3 (Conv2D)        (None, 37, 37, 512)       2359808   
_________________________________________________________________
block4_pool (MaxPooling2D)   (None, 18, 18, 512)       0         
_________________________________________________________________
block5_conv1 (Conv2D)        (None, 18, 18, 512)       2359808   
_________________________________________________________________
block5_conv2 (Conv2D)        (None, 18, 18, 512)       2359808   
_________________________________________________________________
block5_conv3 (Conv2D)        (None, 18, 18, 512)       2359808   
_________________________________________________________________
block5_pool (MaxPooling2D)   (None, 9, 9, 512)         0         
_________________________________________________________________
flatten_1 (Flatten)          (None, 41472)             0         
_________________________________________________________________
dense_1 (Dense)              (None, 4096)              169873408 
_________________________________________________________________
dense_2 (Dense)              (None, 4096)              16781312  
_________________________________________________________________
dense_3 (Dense)              (None, 4)                 16388     
=================================================================
Total params: 201,385,796
Trainable params: 186,671,108
Non-trainable params: 14,714,688
_________________________________________________________________
None
