…
2019-06-22 18:12:01.861188: I tensorflow/core/common_runtime/process_util.cc:69] Creating new thread pool with default inter op setting: 2. Tune using inter_op_parallelism_threads for best performance.
debug mode: ON
n train: 10
Preprocessing: train
	 NORMAL
	 DME
	 CNV
	 DRUSEN
Preprocessing: val
	 NORMAL
	 DME
	 CNV
	 DRUSEN
Preprocessing: train
	 NORMAL
	 DME
	 CNV
	 DRUSEN
Preprocessing: val
	 NORMAL
	 DME
	 CNV
	 DRUSEN
loading data
InceptionV3
__________________________________________________________________________________________________
Layer (type)                    Output Shape         Param #     Connected to                     
==================================================================================================
input_1 (InputLayer)            (None, 299, 299, 3)  0                                            
__________________________________________________________________________________________________
conv2d_1 (Conv2D)               (None, 149, 149, 32) 864         input_1[0][0]                    
__________________________________________________________________________________________________
batch_normalization_1 (BatchNor (None, 149, 149, 32) 96          conv2d_1[0][0]                   
__________________________________________________________________________________________________
activation_1 (Activation)       (None, 149, 149, 32) 0           batch_normalization_1[0][0]      
__________________________________________________________________________________________________
conv2d_2 (Conv2D)               (None, 147, 147, 32) 9216        activation_1[0][0]               
__________________________________________________________________________________________________
batch_normalization_2 (BatchNor (None, 147, 147, 32) 96          conv2d_2[0][0]                   
__________________________________________________________________________________________________
activation_2 (Activation)       (None, 147, 147, 32) 0           batch_normalization_2[0][0]      
__________________________________________________________________________________________________
conv2d_3 (Conv2D)               (None, 147, 147, 64) 18432       activation_2[0][0]               
__________________________________________________________________________________________________
batch_normalization_3 (BatchNor (None, 147, 147, 64) 192         conv2d_3[0][0]                   
__________________________________________________________________________________________________
activation_3 (Activation)       (None, 147, 147, 64) 0           batch_normalization_3[0][0]      
__________________________________________________________________________________________________
max_pooling2d_1 (MaxPooling2D)  (None, 73, 73, 64)   0           activation_3[0][0]               
__________________________________________________________________________________________________
conv2d_4 (Conv2D)               (None, 73, 73, 80)   5120        max_pooling2d_1[0][0]            
__________________________________________________________________________________________________
batch_normalization_4 (BatchNor (None, 73, 73, 80)   240         conv2d_4[0][0]                   
__________________________________________________________________________________________________
activation_4 (Activation)       (None, 73, 73, 80)   0           batch_normalization_4[0][0]      
__________________________________________________________________________________________________
conv2d_5 (Conv2D)               (None, 71, 71, 192)  138240      activation_4[0][0]               
__________________________________________________________________________________________________
batch_normalization_5 (BatchNor (None, 71, 71, 192)  576         conv2d_5[0][0]                   
__________________________________________________________________________________________________
activation_5 (Activation)       (None, 71, 71, 192)  0           batch_normalization_5[0][0]      
__________________________________________________________________________________________________
max_pooling2d_2 (MaxPooling2D)  (None, 35, 35, 192)  0           activation_5[0][0]               
__________________________________________________________________________________________________
conv2d_9 (Conv2D)               (None, 35, 35, 64)   12288       max_pooling2d_2[0][0]            
__________________________________________________________________________________________________
batch_normalization_9 (BatchNor (None, 35, 35, 64)   192         conv2d_9[0][0]                   
__________________________________________________________________________________________________
activation_9 (Activation)       (None, 35, 35, 64)   0           batch_normalization_9[0][0]      
__________________________________________________________________________________________________
conv2d_7 (Conv2D)               (None, 35, 35, 48)   9216        max_pooling2d_2[0][0]            
__________________________________________________________________________________________________
conv2d_10 (Conv2D)              (None, 35, 35, 96)   55296       activation_9[0][0]               
__________________________________________________________________________________________________
batch_normalization_7 (BatchNor (None, 35, 35, 48)   144         conv2d_7[0][0]                   
__________________________________________________________________________________________________
batch_normalization_10 (BatchNo (None, 35, 35, 96)   288         conv2d_10[0][0]                  
__________________________________________________________________________________________________
activation_7 (Activation)       (None, 35, 35, 48)   0           batch_normalization_7[0][0]      
__________________________________________________________________________________________________
activation_10 (Activation)      (None, 35, 35, 96)   0           batch_normalization_10[0][0]     
__________________________________________________________________________________________________
average_pooling2d_1 (AveragePoo (None, 35, 35, 192)  0           max_pooling2d_2[0][0]            
__________________________________________________________________________________________________
conv2d_6 (Conv2D)               (None, 35, 35, 64)   12288       max_pooling2d_2[0][0]            
__________________________________________________________________________________________________
conv2d_8 (Conv2D)               (None, 35, 35, 64)   76800       activation_7[0][0]               
__________________________________________________________________________________________________
conv2d_11 (Conv2D)              (None, 35, 35, 96)   82944       activation_10[0][0]              
__________________________________________________________________________________________________
conv2d_12 (Conv2D)              (None, 35, 35, 32)   6144        average_pooling2d_1[0][0]        
__________________________________________________________________________________________________
batch_normalization_6 (BatchNor (None, 35, 35, 64)   192         conv2d_6[0][0]                   
__________________________________________________________________________________________________
batch_normalization_8 (BatchNor (None, 35, 35, 64)   192         conv2d_8[0][0]                   
__________________________________________________________________________________________________
batch_normalization_11 (BatchNo (None, 35, 35, 96)   288         conv2d_11[0][0]                  
__________________________________________________________________________________________________
batch_normalization_12 (BatchNo (None, 35, 35, 32)   96          conv2d_12[0][0]                  
__________________________________________________________________________________________________
activation_6 (Activation)       (None, 35, 35, 64)   0           batch_normalization_6[0][0]      
__________________________________________________________________________________________________
activation_8 (Activation)       (None, 35, 35, 64)   0           batch_normalization_8[0][0]      
__________________________________________________________________________________________________
activation_11 (Activation)      (None, 35, 35, 96)   0           batch_normalization_11[0][0]     
__________________________________________________________________________________________________
activation_12 (Activation)      (None, 35, 35, 32)   0           batch_normalization_12[0][0]     
__________________________________________________________________________________________________
mixed0 (Concatenate)            (None, 35, 35, 256)  0           activation_6[0][0]               
                                                                 activation_8[0][0]               
                                                                 activation_11[0][0]              
                                                                 activation_12[0][0]              
__________________________________________________________________________________________________
conv2d_16 (Conv2D)              (None, 35, 35, 64)   16384       mixed0[0][0]                     
__________________________________________________________________________________________________
batch_normalization_16 (BatchNo (None, 35, 35, 64)   192         conv2d_16[0][0]                  
__________________________________________________________________________________________________
activation_16 (Activation)      (None, 35, 35, 64)   0           batch_normalization_16[0][0]     
__________________________________________________________________________________________________
conv2d_14 (Conv2D)              (None, 35, 35, 48)   12288       mixed0[0][0]                     
__________________________________________________________________________________________________
conv2d_17 (Conv2D)              (None, 35, 35, 96)   55296       activation_16[0][0]              
__________________________________________________________________________________________________
batch_normalization_14 (BatchNo (None, 35, 35, 48)   144         conv2d_14[0][0]                  
__________________________________________________________________________________________________
batch_normalization_17 (BatchNo (None, 35, 35, 96)   288         conv2d_17[0][0]                  
__________________________________________________________________________________________________
activation_14 (Activation)      (None, 35, 35, 48)   0           batch_normalization_14[0][0]     
__________________________________________________________________________________________________
activation_17 (Activation)      (None, 35, 35, 96)   0           batch_normalization_17[0][0]     
__________________________________________________________________________________________________
average_pooling2d_2 (AveragePoo (None, 35, 35, 256)  0           mixed0[0][0]                     
__________________________________________________________________________________________________
conv2d_13 (Conv2D)              (None, 35, 35, 64)   16384       mixed0[0][0]                     
__________________________________________________________________________________________________
conv2d_15 (Conv2D)              (None, 35, 35, 64)   76800       activation_14[0][0]              
__________________________________________________________________________________________________
conv2d_18 (Conv2D)              (None, 35, 35, 96)   82944       activation_17[0][0]              
__________________________________________________________________________________________________
conv2d_19 (Conv2D)              (None, 35, 35, 64)   16384       average_pooling2d_2[0][0]        
__________________________________________________________________________________________________
batch_normalization_13 (BatchNo (None, 35, 35, 64)   192         conv2d_13[0][0]                  
__________________________________________________________________________________________________
batch_normalization_15 (BatchNo (None, 35, 35, 64)   192         conv2d_15[0][0]                  
__________________________________________________________________________________________________
batch_normalization_18 (BatchNo (None, 35, 35, 96)   288         conv2d_18[0][0]                  
__________________________________________________________________________________________________
batch_normalization_19 (BatchNo (None, 35, 35, 64)   192         conv2d_19[0][0]                  
__________________________________________________________________________________________________
activation_13 (Activation)      (None, 35, 35, 64)   0           batch_normalization_13[0][0]     
__________________________________________________________________________________________________
activation_15 (Activation)      (None, 35, 35, 64)   0           batch_normalization_15[0][0]     
__________________________________________________________________________________________________
activation_18 (Activation)      (None, 35, 35, 96)   0           batch_normalization_18[0][0]     
__________________________________________________________________________________________________
activation_19 (Activation)      (None, 35, 35, 64)   0           batch_normalization_19[0][0]     
__________________________________________________________________________________________________
mixed1 (Concatenate)            (None, 35, 35, 288)  0           activation_13[0][0]              
                                                                 activation_15[0][0]              
                                                                 activation_18[0][0]              
                                                                 activation_19[0][0]              
__________________________________________________________________________________________________
conv2d_23 (Conv2D)              (None, 35, 35, 64)   18432       mixed1[0][0]                     
__________________________________________________________________________________________________
batch_normalization_23 (BatchNo (None, 35, 35, 64)   192         conv2d_23[0][0]                  
__________________________________________________________________________________________________
activation_23 (Activation)      (None, 35, 35, 64)   0           batch_normalization_23[0][0]     
__________________________________________________________________________________________________
conv2d_21 (Conv2D)              (None, 35, 35, 48)   13824       mixed1[0][0]                     
__________________________________________________________________________________________________
conv2d_24 (Conv2D)              (None, 35, 35, 96)   55296       activation_23[0][0]              
__________________________________________________________________________________________________
batch_normalization_21 (BatchNo (None, 35, 35, 48)   144         conv2d_21[0][0]                  
__________________________________________________________________________________________________
batch_normalization_24 (BatchNo (None, 35, 35, 96)   288         conv2d_24[0][0]                  
__________________________________________________________________________________________________
activation_21 (Activation)      (None, 35, 35, 48)   0           batch_normalization_21[0][0]     
__________________________________________________________________________________________________
activation_24 (Activation)      (None, 35, 35, 96)   0           batch_normalization_24[0][0]     
__________________________________________________________________________________________________
average_pooling2d_3 (AveragePoo (None, 35, 35, 288)  0           mixed1[0][0]                     
__________________________________________________________________________________________________
conv2d_20 (Conv2D)              (None, 35, 35, 64)   18432       mixed1[0][0]                     
__________________________________________________________________________________________________
conv2d_22 (Conv2D)              (None, 35, 35, 64)   76800       activation_21[0][0]              
__________________________________________________________________________________________________
conv2d_25 (Conv2D)              (None, 35, 35, 96)   82944       activation_24[0][0]              
__________________________________________________________________________________________________
conv2d_26 (Conv2D)              (None, 35, 35, 64)   18432       average_pooling2d_3[0][0]        
__________________________________________________________________________________________________
batch_normalization_20 (BatchNo (None, 35, 35, 64)   192         conv2d_20[0][0]                  
__________________________________________________________________________________________________
batch_normalization_22 (BatchNo (None, 35, 35, 64)   192         conv2d_22[0][0]                  
__________________________________________________________________________________________________
batch_normalization_25 (BatchNo (None, 35, 35, 96)   288         conv2d_25[0][0]                  
__________________________________________________________________________________________________
batch_normalization_26 (BatchNo (None, 35, 35, 64)   192         conv2d_26[0][0]                  
__________________________________________________________________________________________________
activation_20 (Activation)      (None, 35, 35, 64)   0           batch_normalization_20[0][0]     
__________________________________________________________________________________________________
activation_22 (Activation)      (None, 35, 35, 64)   0           batch_normalization_22[0][0]     
__________________________________________________________________________________________________
activation_25 (Activation)      (None, 35, 35, 96)   0           batch_normalization_25[0][0]     
__________________________________________________________________________________________________
activation_26 (Activation)      (None, 35, 35, 64)   0           batch_normalization_26[0][0]     
__________________________________________________________________________________________________
mixed2 (Concatenate)            (None, 35, 35, 288)  0           activation_20[0][0]              
                                                                 activation_22[0][0]              
                                                                 activation_25[0][0]              
                                                                 activation_26[0][0]              
__________________________________________________________________________________________________
conv2d_28 (Conv2D)              (None, 35, 35, 64)   18432       mixed2[0][0]                     
__________________________________________________________________________________________________
batch_normalization_28 (BatchNo (None, 35, 35, 64)   192         conv2d_28[0][0]                  
__________________________________________________________________________________________________
activation_28 (Activation)      (None, 35, 35, 64)   0           batch_normalization_28[0][0]     
__________________________________________________________________________________________________
conv2d_29 (Conv2D)              (None, 35, 35, 96)   55296       activation_28[0][0]              
__________________________________________________________________________________________________
batch_normalization_29 (BatchNo (None, 35, 35, 96)   288         conv2d_29[0][0]                  
__________________________________________________________________________________________________
activation_29 (Activation)      (None, 35, 35, 96)   0           batch_normalization_29[0][0]     
__________________________________________________________________________________________________
conv2d_27 (Conv2D)              (None, 17, 17, 384)  995328      mixed2[0][0]                     
__________________________________________________________________________________________________
conv2d_30 (Conv2D)              (None, 17, 17, 96)   82944       activation_29[0][0]              
__________________________________________________________________________________________________
batch_normalization_27 (BatchNo (None, 17, 17, 384)  1152        conv2d_27[0][0]                  
__________________________________________________________________________________________________
batch_normalization_30 (BatchNo (None, 17, 17, 96)   288         conv2d_30[0][0]                  
__________________________________________________________________________________________________
activation_27 (Activation)      (None, 17, 17, 384)  0           batch_normalization_27[0][0]     
__________________________________________________________________________________________________
activation_30 (Activation)      (None, 17, 17, 96)   0           batch_normalization_30[0][0]     
__________________________________________________________________________________________________
max_pooling2d_3 (MaxPooling2D)  (None, 17, 17, 288)  0           mixed2[0][0]                     
__________________________________________________________________________________________________
mixed3 (Concatenate)            (None, 17, 17, 768)  0           activation_27[0][0]              
                                                                 activation_30[0][0]              
                                                                 max_pooling2d_3[0][0]            
__________________________________________________________________________________________________
conv2d_35 (Conv2D)              (None, 17, 17, 128)  98304       mixed3[0][0]                     
__________________________________________________________________________________________________
batch_normalization_35 (BatchNo (None, 17, 17, 128)  384         conv2d_35[0][0]                  
__________________________________________________________________________________________________
activation_35 (Activation)      (None, 17, 17, 128)  0           batch_normalization_35[0][0]     
__________________________________________________________________________________________________
conv2d_36 (Conv2D)              (None, 17, 17, 128)  114688      activation_35[0][0]              
__________________________________________________________________________________________________
batch_normalization_36 (BatchNo (None, 17, 17, 128)  384         conv2d_36[0][0]                  
__________________________________________________________________________________________________
activation_36 (Activation)      (None, 17, 17, 128)  0           batch_normalization_36[0][0]     
__________________________________________________________________________________________________
conv2d_32 (Conv2D)              (None, 17, 17, 128)  98304       mixed3[0][0]                     
__________________________________________________________________________________________________
conv2d_37 (Conv2D)              (None, 17, 17, 128)  114688      activation_36[0][0]              
__________________________________________________________________________________________________
batch_normalization_32 (BatchNo (None, 17, 17, 128)  384         conv2d_32[0][0]                  
__________________________________________________________________________________________________
batch_normalization_37 (BatchNo (None, 17, 17, 128)  384         conv2d_37[0][0]                  
__________________________________________________________________________________________________
activation_32 (Activation)      (None, 17, 17, 128)  0           batch_normalization_32[0][0]     
__________________________________________________________________________________________________
activation_37 (Activation)      (None, 17, 17, 128)  0           batch_normalization_37[0][0]     
__________________________________________________________________________________________________
conv2d_33 (Conv2D)              (None, 17, 17, 128)  114688      activation_32[0][0]              
__________________________________________________________________________________________________
conv2d_38 (Conv2D)              (None, 17, 17, 128)  114688      activation_37[0][0]              
__________________________________________________________________________________________________
batch_normalization_33 (BatchNo (None, 17, 17, 128)  384         conv2d_33[0][0]                  
__________________________________________________________________________________________________
batch_normalization_38 (BatchNo (None, 17, 17, 128)  384         conv2d_38[0][0]                  
__________________________________________________________________________________________________
activation_33 (Activation)      (None, 17, 17, 128)  0           batch_normalization_33[0][0]     
__________________________________________________________________________________________________
activation_38 (Activation)      (None, 17, 17, 128)  0           batch_normalization_38[0][0]     
__________________________________________________________________________________________________
average_pooling2d_4 (AveragePoo (None, 17, 17, 768)  0           mixed3[0][0]                     
__________________________________________________________________________________________________
conv2d_31 (Conv2D)              (None, 17, 17, 192)  147456      mixed3[0][0]                     
__________________________________________________________________________________________________
conv2d_34 (Conv2D)              (None, 17, 17, 192)  172032      activation_33[0][0]              
__________________________________________________________________________________________________
conv2d_39 (Conv2D)              (None, 17, 17, 192)  172032      activation_38[0][0]              
__________________________________________________________________________________________________
conv2d_40 (Conv2D)              (None, 17, 17, 192)  147456      average_pooling2d_4[0][0]        
__________________________________________________________________________________________________
batch_normalization_31 (BatchNo (None, 17, 17, 192)  576         conv2d_31[0][0]                  
__________________________________________________________________________________________________
batch_normalization_34 (BatchNo (None, 17, 17, 192)  576         conv2d_34[0][0]                  
__________________________________________________________________________________________________
batch_normalization_39 (BatchNo (None, 17, 17, 192)  576         conv2d_39[0][0]                  
__________________________________________________________________________________________________
batch_normalization_40 (BatchNo (None, 17, 17, 192)  576         conv2d_40[0][0]                  
__________________________________________________________________________________________________
activation_31 (Activation)      (None, 17, 17, 192)  0           batch_normalization_31[0][0]     
__________________________________________________________________________________________________
activation_34 (Activation)      (None, 17, 17, 192)  0           batch_normalization_34[0][0]     
__________________________________________________________________________________________________
activation_39 (Activation)      (None, 17, 17, 192)  0           batch_normalization_39[0][0]     
__________________________________________________________________________________________________
activation_40 (Activation)      (None, 17, 17, 192)  0           batch_normalization_40[0][0]     
__________________________________________________________________________________________________
mixed4 (Concatenate)            (None, 17, 17, 768)  0           activation_31[0][0]              
                                                                 activation_34[0][0]              
                                                                 activation_39[0][0]              
                                                                 activation_40[0][0]              
__________________________________________________________________________________________________
conv2d_45 (Conv2D)              (None, 17, 17, 160)  122880      mixed4[0][0]                     
__________________________________________________________________________________________________
batch_normalization_45 (BatchNo (None, 17, 17, 160)  480         conv2d_45[0][0]                  
__________________________________________________________________________________________________
activation_45 (Activation)      (None, 17, 17, 160)  0           batch_normalization_45[0][0]     
__________________________________________________________________________________________________
conv2d_46 (Conv2D)              (None, 17, 17, 160)  179200      activation_45[0][0]              
__________________________________________________________________________________________________
batch_normalization_46 (BatchNo (None, 17, 17, 160)  480         conv2d_46[0][0]                  
__________________________________________________________________________________________________
activation_46 (Activation)      (None, 17, 17, 160)  0           batch_normalization_46[0][0]     
__________________________________________________________________________________________________
conv2d_42 (Conv2D)              (None, 17, 17, 160)  122880      mixed4[0][0]                     
__________________________________________________________________________________________________
conv2d_47 (Conv2D)              (None, 17, 17, 160)  179200      activation_46[0][0]              
__________________________________________________________________________________________________
batch_normalization_42 (BatchNo (None, 17, 17, 160)  480         conv2d_42[0][0]                  
__________________________________________________________________________________________________
batch_normalization_47 (BatchNo (None, 17, 17, 160)  480         conv2d_47[0][0]                  
__________________________________________________________________________________________________
activation_42 (Activation)      (None, 17, 17, 160)  0           batch_normalization_42[0][0]     
__________________________________________________________________________________________________
activation_47 (Activation)      (None, 17, 17, 160)  0           batch_normalization_47[0][0]     
__________________________________________________________________________________________________
conv2d_43 (Conv2D)              (None, 17, 17, 160)  179200      activation_42[0][0]              
__________________________________________________________________________________________________
conv2d_48 (Conv2D)              (None, 17, 17, 160)  179200      activation_47[0][0]              
__________________________________________________________________________________________________
batch_normalization_43 (BatchNo (None, 17, 17, 160)  480         conv2d_43[0][0]                  
__________________________________________________________________________________________________
batch_normalization_48 (BatchNo (None, 17, 17, 160)  480         conv2d_48[0][0]                  
__________________________________________________________________________________________________
activation_43 (Activation)      (None, 17, 17, 160)  0           batch_normalization_43[0][0]     
__________________________________________________________________________________________________
activation_48 (Activation)      (None, 17, 17, 160)  0           batch_normalization_48[0][0]     
__________________________________________________________________________________________________
average_pooling2d_5 (AveragePoo (None, 17, 17, 768)  0           mixed4[0][0]                     
__________________________________________________________________________________________________
conv2d_41 (Conv2D)              (None, 17, 17, 192)  147456      mixed4[0][0]                     
__________________________________________________________________________________________________
conv2d_44 (Conv2D)              (None, 17, 17, 192)  215040      activation_43[0][0]              
__________________________________________________________________________________________________
conv2d_49 (Conv2D)              (None, 17, 17, 192)  215040      activation_48[0][0]              
__________________________________________________________________________________________________
conv2d_50 (Conv2D)              (None, 17, 17, 192)  147456      average_pooling2d_5[0][0]        
__________________________________________________________________________________________________
batch_normalization_41 (BatchNo (None, 17, 17, 192)  576         conv2d_41[0][0]                  
__________________________________________________________________________________________________
batch_normalization_44 (BatchNo (None, 17, 17, 192)  576         conv2d_44[0][0]                  
__________________________________________________________________________________________________
batch_normalization_49 (BatchNo (None, 17, 17, 192)  576         conv2d_49[0][0]                  
__________________________________________________________________________________________________
batch_normalization_50 (BatchNo (None, 17, 17, 192)  576         conv2d_50[0][0]                  
__________________________________________________________________________________________________
activation_41 (Activation)      (None, 17, 17, 192)  0           batch_normalization_41[0][0]     
__________________________________________________________________________________________________
activation_44 (Activation)      (None, 17, 17, 192)  0           batch_normalization_44[0][0]     
__________________________________________________________________________________________________
activation_49 (Activation)      (None, 17, 17, 192)  0           batch_normalization_49[0][0]     
__________________________________________________________________________________________________
activation_50 (Activation)      (None, 17, 17, 192)  0           batch_normalization_50[0][0]     
__________________________________________________________________________________________________
mixed5 (Concatenate)            (None, 17, 17, 768)  0           activation_41[0][0]              
                                                                 activation_44[0][0]              
                                                                 activation_49[0][0]              
                                                                 activation_50[0][0]              
__________________________________________________________________________________________________
conv2d_55 (Conv2D)              (None, 17, 17, 160)  122880      mixed5[0][0]                     
__________________________________________________________________________________________________
batch_normalization_55 (BatchNo (None, 17, 17, 160)  480         conv2d_55[0][0]                  
__________________________________________________________________________________________________
activation_55 (Activation)      (None, 17, 17, 160)  0           batch_normalization_55[0][0]     
__________________________________________________________________________________________________
conv2d_56 (Conv2D)              (None, 17, 17, 160)  179200      activation_55[0][0]              
__________________________________________________________________________________________________
batch_normalization_56 (BatchNo (None, 17, 17, 160)  480         conv2d_56[0][0]                  
__________________________________________________________________________________________________
activation_56 (Activation)      (None, 17, 17, 160)  0           batch_normalization_56[0][0]     
__________________________________________________________________________________________________
conv2d_52 (Conv2D)              (None, 17, 17, 160)  122880      mixed5[0][0]                     
__________________________________________________________________________________________________
conv2d_57 (Conv2D)              (None, 17, 17, 160)  179200      activation_56[0][0]              
__________________________________________________________________________________________________
batch_normalization_52 (BatchNo (None, 17, 17, 160)  480         conv2d_52[0][0]                  
__________________________________________________________________________________________________
batch_normalization_57 (BatchNo (None, 17, 17, 160)  480         conv2d_57[0][0]                  
__________________________________________________________________________________________________
activation_52 (Activation)      (None, 17, 17, 160)  0           batch_normalization_52[0][0]     
__________________________________________________________________________________________________
activation_57 (Activation)      (None, 17, 17, 160)  0           batch_normalization_57[0][0]     
__________________________________________________________________________________________________
conv2d_53 (Conv2D)              (None, 17, 17, 160)  179200      activation_52[0][0]              
__________________________________________________________________________________________________
conv2d_58 (Conv2D)              (None, 17, 17, 160)  179200      activation_57[0][0]              
__________________________________________________________________________________________________
batch_normalization_53 (BatchNo (None, 17, 17, 160)  480         conv2d_53[0][0]                  
__________________________________________________________________________________________________
batch_normalization_58 (BatchNo (None, 17, 17, 160)  480         conv2d_58[0][0]                  
__________________________________________________________________________________________________
activation_53 (Activation)      (None, 17, 17, 160)  0           batch_normalization_53[0][0]     
__________________________________________________________________________________________________
activation_58 (Activation)      (None, 17, 17, 160)  0           batch_normalization_58[0][0]     
__________________________________________________________________________________________________
average_pooling2d_6 (AveragePoo (None, 17, 17, 768)  0           mixed5[0][0]                     
__________________________________________________________________________________________________
conv2d_51 (Conv2D)              (None, 17, 17, 192)  147456      mixed5[0][0]                     
__________________________________________________________________________________________________
conv2d_54 (Conv2D)              (None, 17, 17, 192)  215040      activation_53[0][0]              
__________________________________________________________________________________________________
conv2d_59 (Conv2D)              (None, 17, 17, 192)  215040      activation_58[0][0]              
__________________________________________________________________________________________________
conv2d_60 (Conv2D)              (None, 17, 17, 192)  147456      average_pooling2d_6[0][0]        
__________________________________________________________________________________________________
batch_normalization_51 (BatchNo (None, 17, 17, 192)  576         conv2d_51[0][0]                  
__________________________________________________________________________________________________
batch_normalization_54 (BatchNo (None, 17, 17, 192)  576         conv2d_54[0][0]                  
__________________________________________________________________________________________________
batch_normalization_59 (BatchNo (None, 17, 17, 192)  576         conv2d_59[0][0]                  
__________________________________________________________________________________________________
batch_normalization_60 (BatchNo (None, 17, 17, 192)  576         conv2d_60[0][0]                  
__________________________________________________________________________________________________
activation_51 (Activation)      (None, 17, 17, 192)  0           batch_normalization_51[0][0]     
__________________________________________________________________________________________________
activation_54 (Activation)      (None, 17, 17, 192)  0           batch_normalization_54[0][0]     
__________________________________________________________________________________________________
activation_59 (Activation)      (None, 17, 17, 192)  0           batch_normalization_59[0][0]     
__________________________________________________________________________________________________
activation_60 (Activation)      (None, 17, 17, 192)  0           batch_normalization_60[0][0]     
__________________________________________________________________________________________________
mixed6 (Concatenate)            (None, 17, 17, 768)  0           activation_51[0][0]              
                                                                 activation_54[0][0]              
                                                                 activation_59[0][0]              
                                                                 activation_60[0][0]              
__________________________________________________________________________________________________
conv2d_65 (Conv2D)              (None, 17, 17, 192)  147456      mixed6[0][0]                     
__________________________________________________________________________________________________
batch_normalization_65 (BatchNo (None, 17, 17, 192)  576         conv2d_65[0][0]                  
__________________________________________________________________________________________________
activation_65 (Activation)      (None, 17, 17, 192)  0           batch_normalization_65[0][0]     
__________________________________________________________________________________________________
conv2d_66 (Conv2D)              (None, 17, 17, 192)  258048      activation_65[0][0]              
__________________________________________________________________________________________________
batch_normalization_66 (BatchNo (None, 17, 17, 192)  576         conv2d_66[0][0]                  
__________________________________________________________________________________________________
activation_66 (Activation)      (None, 17, 17, 192)  0           batch_normalization_66[0][0]     
__________________________________________________________________________________________________
conv2d_62 (Conv2D)              (None, 17, 17, 192)  147456      mixed6[0][0]                     
__________________________________________________________________________________________________
conv2d_67 (Conv2D)              (None, 17, 17, 192)  258048      activation_66[0][0]              
__________________________________________________________________________________________________
batch_normalization_62 (BatchNo (None, 17, 17, 192)  576         conv2d_62[0][0]                  
__________________________________________________________________________________________________
batch_normalization_67 (BatchNo (None, 17, 17, 192)  576         conv2d_67[0][0]                  
__________________________________________________________________________________________________
activation_62 (Activation)      (None, 17, 17, 192)  0           batch_normalization_62[0][0]     
__________________________________________________________________________________________________
activation_67 (Activation)      (None, 17, 17, 192)  0           batch_normalization_67[0][0]     
__________________________________________________________________________________________________
conv2d_63 (Conv2D)              (None, 17, 17, 192)  258048      activation_62[0][0]              
__________________________________________________________________________________________________
conv2d_68 (Conv2D)              (None, 17, 17, 192)  258048      activation_67[0][0]              
__________________________________________________________________________________________________
batch_normalization_63 (BatchNo (None, 17, 17, 192)  576         conv2d_63[0][0]                  
__________________________________________________________________________________________________
batch_normalization_68 (BatchNo (None, 17, 17, 192)  576         conv2d_68[0][0]                  
__________________________________________________________________________________________________
activation_63 (Activation)      (None, 17, 17, 192)  0           batch_normalization_63[0][0]     
__________________________________________________________________________________________________
activation_68 (Activation)      (None, 17, 17, 192)  0           batch_normalization_68[0][0]     
__________________________________________________________________________________________________
average_pooling2d_7 (AveragePoo (None, 17, 17, 768)  0           mixed6[0][0]                     
__________________________________________________________________________________________________
conv2d_61 (Conv2D)              (None, 17, 17, 192)  147456      mixed6[0][0]                     
__________________________________________________________________________________________________
conv2d_64 (Conv2D)              (None, 17, 17, 192)  258048      activation_63[0][0]              
__________________________________________________________________________________________________
conv2d_69 (Conv2D)              (None, 17, 17, 192)  258048      activation_68[0][0]              
__________________________________________________________________________________________________
conv2d_70 (Conv2D)              (None, 17, 17, 192)  147456      average_pooling2d_7[0][0]        
__________________________________________________________________________________________________
batch_normalization_61 (BatchNo (None, 17, 17, 192)  576         conv2d_61[0][0]                  
__________________________________________________________________________________________________
batch_normalization_64 (BatchNo (None, 17, 17, 192)  576         conv2d_64[0][0]                  
__________________________________________________________________________________________________
batch_normalization_69 (BatchNo (None, 17, 17, 192)  576         conv2d_69[0][0]                  
__________________________________________________________________________________________________
batch_normalization_70 (BatchNo (None, 17, 17, 192)  576         conv2d_70[0][0]                  
__________________________________________________________________________________________________
activation_61 (Activation)      (None, 17, 17, 192)  0           batch_normalization_61[0][0]     
__________________________________________________________________________________________________
activation_64 (Activation)      (None, 17, 17, 192)  0           batch_normalization_64[0][0]     
__________________________________________________________________________________________________
activation_69 (Activation)      (None, 17, 17, 192)  0           batch_normalization_69[0][0]     
__________________________________________________________________________________________________
activation_70 (Activation)      (None, 17, 17, 192)  0           batch_normalization_70[0][0]     
__________________________________________________________________________________________________
mixed7 (Concatenate)            (None, 17, 17, 768)  0           activation_61[0][0]              
                                                                 activation_64[0][0]              
                                                                 activation_69[0][0]              
                                                                 activation_70[0][0]              
__________________________________________________________________________________________________
conv2d_73 (Conv2D)              (None, 17, 17, 192)  147456      mixed7[0][0]                     
__________________________________________________________________________________________________
batch_normalization_73 (BatchNo (None, 17, 17, 192)  576         conv2d_73[0][0]                  
__________________________________________________________________________________________________
activation_73 (Activation)      (None, 17, 17, 192)  0           batch_normalization_73[0][0]     
__________________________________________________________________________________________________
conv2d_74 (Conv2D)              (None, 17, 17, 192)  258048      activation_73[0][0]              
__________________________________________________________________________________________________
batch_normalization_74 (BatchNo (None, 17, 17, 192)  576         conv2d_74[0][0]                  
__________________________________________________________________________________________________
activation_74 (Activation)      (None, 17, 17, 192)  0           batch_normalization_74[0][0]     
__________________________________________________________________________________________________
conv2d_71 (Conv2D)              (None, 17, 17, 192)  147456      mixed7[0][0]                     
__________________________________________________________________________________________________
conv2d_75 (Conv2D)              (None, 17, 17, 192)  258048      activation_74[0][0]              
__________________________________________________________________________________________________
batch_normalization_71 (BatchNo (None, 17, 17, 192)  576         conv2d_71[0][0]                  
__________________________________________________________________________________________________
batch_normalization_75 (BatchNo (None, 17, 17, 192)  576         conv2d_75[0][0]                  
__________________________________________________________________________________________________
activation_71 (Activation)      (None, 17, 17, 192)  0           batch_normalization_71[0][0]     
__________________________________________________________________________________________________
activation_75 (Activation)      (None, 17, 17, 192)  0           batch_normalization_75[0][0]     
__________________________________________________________________________________________________
conv2d_72 (Conv2D)              (None, 8, 8, 320)    552960      activation_71[0][0]              
__________________________________________________________________________________________________
conv2d_76 (Conv2D)              (None, 8, 8, 192)    331776      activation_75[0][0]              
__________________________________________________________________________________________________
batch_normalization_72 (BatchNo (None, 8, 8, 320)    960         conv2d_72[0][0]                  
__________________________________________________________________________________________________
batch_normalization_76 (BatchNo (None, 8, 8, 192)    576         conv2d_76[0][0]                  
__________________________________________________________________________________________________
activation_72 (Activation)      (None, 8, 8, 320)    0           batch_normalization_72[0][0]     
__________________________________________________________________________________________________
activation_76 (Activation)      (None, 8, 8, 192)    0           batch_normalization_76[0][0]     
__________________________________________________________________________________________________
max_pooling2d_4 (MaxPooling2D)  (None, 8, 8, 768)    0           mixed7[0][0]                     
__________________________________________________________________________________________________
mixed8 (Concatenate)            (None, 8, 8, 1280)   0           activation_72[0][0]              
                                                                 activation_76[0][0]              
                                                                 max_pooling2d_4[0][0]            
__________________________________________________________________________________________________
conv2d_81 (Conv2D)              (None, 8, 8, 448)    573440      mixed8[0][0]                     
__________________________________________________________________________________________________
batch_normalization_81 (BatchNo (None, 8, 8, 448)    1344        conv2d_81[0][0]                  
__________________________________________________________________________________________________
activation_81 (Activation)      (None, 8, 8, 448)    0           batch_normalization_81[0][0]     
__________________________________________________________________________________________________
conv2d_78 (Conv2D)              (None, 8, 8, 384)    491520      mixed8[0][0]                     
__________________________________________________________________________________________________
conv2d_82 (Conv2D)              (None, 8, 8, 384)    1548288     activation_81[0][0]              
__________________________________________________________________________________________________
batch_normalization_78 (BatchNo (None, 8, 8, 384)    1152        conv2d_78[0][0]                  
__________________________________________________________________________________________________
batch_normalization_82 (BatchNo (None, 8, 8, 384)    1152        conv2d_82[0][0]                  
__________________________________________________________________________________________________
activation_78 (Activation)      (None, 8, 8, 384)    0           batch_normalization_78[0][0]     
__________________________________________________________________________________________________
activation_82 (Activation)      (None, 8, 8, 384)    0           batch_normalization_82[0][0]     
__________________________________________________________________________________________________
conv2d_79 (Conv2D)              (None, 8, 8, 384)    442368      activation_78[0][0]              
__________________________________________________________________________________________________
conv2d_80 (Conv2D)              (None, 8, 8, 384)    442368      activation_78[0][0]              
__________________________________________________________________________________________________
conv2d_83 (Conv2D)              (None, 8, 8, 384)    442368      activation_82[0][0]              
__________________________________________________________________________________________________
conv2d_84 (Conv2D)              (None, 8, 8, 384)    442368      activation_82[0][0]              
__________________________________________________________________________________________________
average_pooling2d_8 (AveragePoo (None, 8, 8, 1280)   0           mixed8[0][0]                     
__________________________________________________________________________________________________
conv2d_77 (Conv2D)              (None, 8, 8, 320)    409600      mixed8[0][0]                     
__________________________________________________________________________________________________
batch_normalization_79 (BatchNo (None, 8, 8, 384)    1152        conv2d_79[0][0]                  
__________________________________________________________________________________________________
batch_normalization_80 (BatchNo (None, 8, 8, 384)    1152        conv2d_80[0][0]                  
__________________________________________________________________________________________________
batch_normalization_83 (BatchNo (None, 8, 8, 384)    1152        conv2d_83[0][0]                  
__________________________________________________________________________________________________
batch_normalization_84 (BatchNo (None, 8, 8, 384)    1152        conv2d_84[0][0]                  
__________________________________________________________________________________________________
conv2d_85 (Conv2D)              (None, 8, 8, 192)    245760      average_pooling2d_8[0][0]        
__________________________________________________________________________________________________
batch_normalization_77 (BatchNo (None, 8, 8, 320)    960         conv2d_77[0][0]                  
__________________________________________________________________________________________________
activation_79 (Activation)      (None, 8, 8, 384)    0           batch_normalization_79[0][0]     
__________________________________________________________________________________________________
activation_80 (Activation)      (None, 8, 8, 384)    0           batch_normalization_80[0][0]     
__________________________________________________________________________________________________
activation_83 (Activation)      (None, 8, 8, 384)    0           batch_normalization_83[0][0]     
__________________________________________________________________________________________________
activation_84 (Activation)      (None, 8, 8, 384)    0           batch_normalization_84[0][0]     
__________________________________________________________________________________________________
batch_normalization_85 (BatchNo (None, 8, 8, 192)    576         conv2d_85[0][0]                  
__________________________________________________________________________________________________
activation_77 (Activation)      (None, 8, 8, 320)    0           batch_normalization_77[0][0]     
__________________________________________________________________________________________________
mixed9_0 (Concatenate)          (None, 8, 8, 768)    0           activation_79[0][0]              
                                                                 activation_80[0][0]              
__________________________________________________________________________________________________
concatenate_1 (Concatenate)     (None, 8, 8, 768)    0           activation_83[0][0]              
                                                                 activation_84[0][0]              
__________________________________________________________________________________________________
activation_85 (Activation)      (None, 8, 8, 192)    0           batch_normalization_85[0][0]     
__________________________________________________________________________________________________
mixed9 (Concatenate)            (None, 8, 8, 2048)   0           activation_77[0][0]              
                                                                 mixed9_0[0][0]                   
                                                                 concatenate_1[0][0]              
                                                                 activation_85[0][0]              
__________________________________________________________________________________________________
conv2d_90 (Conv2D)              (None, 8, 8, 448)    917504      mixed9[0][0]                     
__________________________________________________________________________________________________
batch_normalization_90 (BatchNo (None, 8, 8, 448)    1344        conv2d_90[0][0]                  
__________________________________________________________________________________________________
activation_90 (Activation)      (None, 8, 8, 448)    0           batch_normalization_90[0][0]     
__________________________________________________________________________________________________
conv2d_87 (Conv2D)              (None, 8, 8, 384)    786432      mixed9[0][0]                     
__________________________________________________________________________________________________
conv2d_91 (Conv2D)              (None, 8, 8, 384)    1548288     activation_90[0][0]              
__________________________________________________________________________________________________
batch_normalization_87 (BatchNo (None, 8, 8, 384)    1152        conv2d_87[0][0]                  
__________________________________________________________________________________________________
batch_normalization_91 (BatchNo (None, 8, 8, 384)    1152        conv2d_91[0][0]                  
__________________________________________________________________________________________________
activation_87 (Activation)      (None, 8, 8, 384)    0           batch_normalization_87[0][0]     
__________________________________________________________________________________________________
activation_91 (Activation)      (None, 8, 8, 384)    0           batch_normalization_91[0][0]     
__________________________________________________________________________________________________
conv2d_88 (Conv2D)              (None, 8, 8, 384)    442368      activation_87[0][0]              
__________________________________________________________________________________________________
conv2d_89 (Conv2D)              (None, 8, 8, 384)    442368      activation_87[0][0]              
__________________________________________________________________________________________________
conv2d_92 (Conv2D)              (None, 8, 8, 384)    442368      activation_91[0][0]              
__________________________________________________________________________________________________
conv2d_93 (Conv2D)              (None, 8, 8, 384)    442368      activation_91[0][0]              
__________________________________________________________________________________________________
average_pooling2d_9 (AveragePoo (None, 8, 8, 2048)   0           mixed9[0][0]                     
__________________________________________________________________________________________________
conv2d_86 (Conv2D)              (None, 8, 8, 320)    655360      mixed9[0][0]                     
__________________________________________________________________________________________________
batch_normalization_88 (BatchNo (None, 8, 8, 384)    1152        conv2d_88[0][0]                  
__________________________________________________________________________________________________
batch_normalization_89 (BatchNo (None, 8, 8, 384)    1152        conv2d_89[0][0]                  
__________________________________________________________________________________________________
batch_normalization_92 (BatchNo (None, 8, 8, 384)    1152        conv2d_92[0][0]                  
__________________________________________________________________________________________________
batch_normalization_93 (BatchNo (None, 8, 8, 384)    1152        conv2d_93[0][0]                  
__________________________________________________________________________________________________
conv2d_94 (Conv2D)              (None, 8, 8, 192)    393216      average_pooling2d_9[0][0]        
__________________________________________________________________________________________________
batch_normalization_86 (BatchNo (None, 8, 8, 320)    960         conv2d_86[0][0]                  
__________________________________________________________________________________________________
activation_88 (Activation)      (None, 8, 8, 384)    0           batch_normalization_88[0][0]     
__________________________________________________________________________________________________
activation_89 (Activation)      (None, 8, 8, 384)    0           batch_normalization_89[0][0]     
__________________________________________________________________________________________________
activation_92 (Activation)      (None, 8, 8, 384)    0           batch_normalization_92[0][0]     
__________________________________________________________________________________________________
activation_93 (Activation)      (None, 8, 8, 384)    0           batch_normalization_93[0][0]     
__________________________________________________________________________________________________
batch_normalization_94 (BatchNo (None, 8, 8, 192)    576         conv2d_94[0][0]                  
__________________________________________________________________________________________________
activation_86 (Activation)      (None, 8, 8, 320)    0           batch_normalization_86[0][0]     
__________________________________________________________________________________________________
mixed9_1 (Concatenate)          (None, 8, 8, 768)    0           activation_88[0][0]              
                                                                 activation_89[0][0]              
__________________________________________________________________________________________________
concatenate_2 (Concatenate)     (None, 8, 8, 768)    0           activation_92[0][0]              
                                                                 activation_93[0][0]              
__________________________________________________________________________________________________
activation_94 (Activation)      (None, 8, 8, 192)    0           batch_normalization_94[0][0]     
__________________________________________________________________________________________________
mixed10 (Concatenate)           (None, 8, 8, 2048)   0           activation_86[0][0]              
                                                                 mixed9_1[0][0]                   
                                                                 concatenate_2[0][0]              
                                                                 activation_94[0][0]              
__________________________________________________________________________________________________
global_average_pooling2d_1 (Glo (None, 2048)         0           mixed10[0][0]                    
__________________________________________________________________________________________________
dense_1 (Dense)                 (None, 4)            8196        global_average_pooling2d_1[0][0] 
==================================================================================================
Total params: 21,810,980
Trainable params: 25,412
Non-trainable params: 21,785,568
__________________________________________________________________________________________________
None
Train on 8 samples, validate on 20 samples
Epoch 1/3

2/8 [======>.......................] - ETA: 58s - loss: 1.4632 - acc: 0.5000 - categorical_crossentropy: 1.4632
…
4/8 [==============>...............] - ETA: 0s - loss: 1.4211 - acc: 0.2500 - categorical_crossentropy: 1.4211    
6/8 [=====================>........] - ETA: 0s - loss: 1.4086 - acc: 0.3333 - categorical_crossentropy: 1.4086
8/8 [==============================] - 1s 74ms/step - loss: 1.3871 - acc: 0.3750 - categorical_crossentropy: 1.3871 - val_loss: 1.3091 - val_acc: 0.4500 - val_categorical_crossentropy: 1.3091
training time: 0.015244076980484857 h
loading data
VGG16
_________________________________________________________________
Layer (type)                 Output Shape              Param #   
=================================================================
input_2 (InputLayer)         (None, 224, 224, 3)       0         
_________________________________________________________________
block1_conv1 (Conv2D)        (None, 224, 224, 64)      1792      
_________________________________________________________________
block1_conv2 (Conv2D)        (None, 224, 224, 64)      36928     
_________________________________________________________________
block1_pool (MaxPooling2D)   (None, 112, 112, 64)      0         
_________________________________________________________________
block2_conv1 (Conv2D)        (None, 112, 112, 128)     73856     
_________________________________________________________________
block2_conv2 (Conv2D)        (None, 112, 112, 128)     147584    
_________________________________________________________________
block2_pool (MaxPooling2D)   (None, 56, 56, 128)       0         
_________________________________________________________________
block3_conv1 (Conv2D)        (None, 56, 56, 256)       295168    
_________________________________________________________________
block3_conv2 (Conv2D)        (None, 56, 56, 256)       590080    
_________________________________________________________________
block3_conv3 (Conv2D)        (None, 56, 56, 256)       590080    
_________________________________________________________________
block3_pool (MaxPooling2D)   (None, 28, 28, 256)       0         
_________________________________________________________________
block4_conv1 (Conv2D)        (None, 28, 28, 512)       1180160   
_________________________________________________________________
block4_conv2 (Conv2D)        (None, 28, 28, 512)       2359808   
_________________________________________________________________
block4_conv3 (Conv2D)        (None, 28, 28, 512)       2359808   
_________________________________________________________________
block4_pool (MaxPooling2D)   (None, 14, 14, 512)       0         
_________________________________________________________________
block5_conv1 (Conv2D)        (None, 14, 14, 512)       2359808   
_________________________________________________________________
block5_conv2 (Conv2D)        (None, 14, 14, 512)       2359808   
_________________________________________________________________
block5_conv3 (Conv2D)        (None, 14, 14, 512)       2359808   
_________________________________________________________________
block5_pool (MaxPooling2D)   (None, 7, 7, 512)         0         
_________________________________________________________________
flatten_1 (Flatten)          (None, 25088)             0         
_________________________________________________________________
dense_2 (Dense)              (None, 4096)              102764544 
_________________________________________________________________
dense_3 (Dense)              (None, 4096)              16781312  
_________________________________________________________________
dense_4 (Dense)              (None, 4)                 16388     
=================================================================
Total params: 134,276,932
Trainable params: 119,562,244
Non-trainable params: 14,714,688
_________________________________________________________________
None
Train on 8 samples, validate on 20 samples
Epoch 1/3

2/8 [======>.......................] - ETA: 11s - loss: 1.1460 - acc: 0.0000e+00 - categorical_crossentropy: 1.1460
…
6/8 [=====================>........] - ETA: 0s - loss: 1.7563 - acc: 0.5000 - categorical_crossentropy: 1.7563
8/8 [==============================] - 0s 48ms/step - loss: 1.5054 - acc: 0.5000 - categorical_crossentropy: 1.5054 - val_loss: 2.5328 - val_acc: 0.0000e+00 - val_categorical_crossentropy: 2.5328
training time: 0.0029595343934165105 h
loading data
ResNet50
__________________________________________________________________________________________________
Layer (type)                    Output Shape         Param #     Connected to                     
==================================================================================================
input_3 (InputLayer)            (None, 299, 299, 3)  0                                            
__________________________________________________________________________________________________
conv1_pad (ZeroPadding2D)       (None, 305, 305, 3)  0           input_3[0][0]                    
__________________________________________________________________________________________________
conv1 (Conv2D)                  (None, 150, 150, 64) 9472        conv1_pad[0][0]                  
__________________________________________________________________________________________________
bn_conv1 (BatchNormalization)   (None, 150, 150, 64) 256         conv1[0][0]                      
__________________________________________________________________________________________________
activation_95 (Activation)      (None, 150, 150, 64) 0           bn_conv1[0][0]                   
__________________________________________________________________________________________________
pool1_pad (ZeroPadding2D)       (None, 152, 152, 64) 0           activation_95[0][0]              
__________________________________________________________________________________________________
max_pooling2d_5 (MaxPooling2D)  (None, 75, 75, 64)   0           pool1_pad[0][0]                  
__________________________________________________________________________________________________
res2a_branch2a (Conv2D)         (None, 75, 75, 64)   4160        max_pooling2d_5[0][0]            
__________________________________________________________________________________________________
bn2a_branch2a (BatchNormalizati (None, 75, 75, 64)   256         res2a_branch2a[0][0]             
__________________________________________________________________________________________________
activation_96 (Activation)      (None, 75, 75, 64)   0           bn2a_branch2a[0][0]              
__________________________________________________________________________________________________
res2a_branch2b (Conv2D)         (None, 75, 75, 64)   36928       activation_96[0][0]              
__________________________________________________________________________________________________
bn2a_branch2b (BatchNormalizati (None, 75, 75, 64)   256         res2a_branch2b[0][0]             
__________________________________________________________________________________________________
activation_97 (Activation)      (None, 75, 75, 64)   0           bn2a_branch2b[0][0]              
__________________________________________________________________________________________________
res2a_branch2c (Conv2D)         (None, 75, 75, 256)  16640       activation_97[0][0]              
__________________________________________________________________________________________________
res2a_branch1 (Conv2D)          (None, 75, 75, 256)  16640       max_pooling2d_5[0][0]            
__________________________________________________________________________________________________
bn2a_branch2c (BatchNormalizati (None, 75, 75, 256)  1024        res2a_branch2c[0][0]             
__________________________________________________________________________________________________
bn2a_branch1 (BatchNormalizatio (None, 75, 75, 256)  1024        res2a_branch1[0][0]              
__________________________________________________________________________________________________
add_1 (Add)                     (None, 75, 75, 256)  0           bn2a_branch2c[0][0]              
                                                                 bn2a_branch1[0][0]               
__________________________________________________________________________________________________
activation_98 (Activation)      (None, 75, 75, 256)  0           add_1[0][0]                      
__________________________________________________________________________________________________
res2b_branch2a (Conv2D)         (None, 75, 75, 64)   16448       activation_98[0][0]              
__________________________________________________________________________________________________
bn2b_branch2a (BatchNormalizati (None, 75, 75, 64)   256         res2b_branch2a[0][0]             
__________________________________________________________________________________________________
activation_99 (Activation)      (None, 75, 75, 64)   0           bn2b_branch2a[0][0]              
__________________________________________________________________________________________________
res2b_branch2b (Conv2D)         (None, 75, 75, 64)   36928       activation_99[0][0]              
__________________________________________________________________________________________________
bn2b_branch2b (BatchNormalizati (None, 75, 75, 64)   256         res2b_branch2b[0][0]             
__________________________________________________________________________________________________
activation_100 (Activation)     (None, 75, 75, 64)   0           bn2b_branch2b[0][0]              
__________________________________________________________________________________________________
res2b_branch2c (Conv2D)         (None, 75, 75, 256)  16640       activation_100[0][0]             
__________________________________________________________________________________________________
bn2b_branch2c (BatchNormalizati (None, 75, 75, 256)  1024        res2b_branch2c[0][0]             
__________________________________________________________________________________________________
add_2 (Add)                     (None, 75, 75, 256)  0           bn2b_branch2c[0][0]              
                                                                 activation_98[0][0]              
__________________________________________________________________________________________________
activation_101 (Activation)     (None, 75, 75, 256)  0           add_2[0][0]                      
__________________________________________________________________________________________________
res2c_branch2a (Conv2D)         (None, 75, 75, 64)   16448       activation_101[0][0]             
__________________________________________________________________________________________________
bn2c_branch2a (BatchNormalizati (None, 75, 75, 64)   256         res2c_branch2a[0][0]             
__________________________________________________________________________________________________
activation_102 (Activation)     (None, 75, 75, 64)   0           bn2c_branch2a[0][0]              
__________________________________________________________________________________________________
res2c_branch2b (Conv2D)         (None, 75, 75, 64)   36928       activation_102[0][0]             
__________________________________________________________________________________________________
bn2c_branch2b (BatchNormalizati (None, 75, 75, 64)   256         res2c_branch2b[0][0]             
__________________________________________________________________________________________________
activation_103 (Activation)     (None, 75, 75, 64)   0           bn2c_branch2b[0][0]              
__________________________________________________________________________________________________
res2c_branch2c (Conv2D)         (None, 75, 75, 256)  16640       activation_103[0][0]             
__________________________________________________________________________________________________
bn2c_branch2c (BatchNormalizati (None, 75, 75, 256)  1024        res2c_branch2c[0][0]             
__________________________________________________________________________________________________
add_3 (Add)                     (None, 75, 75, 256)  0           bn2c_branch2c[0][0]              
                                                                 activation_101[0][0]             
__________________________________________________________________________________________________
activation_104 (Activation)     (None, 75, 75, 256)  0           add_3[0][0]                      
__________________________________________________________________________________________________
res3a_branch2a (Conv2D)         (None, 38, 38, 128)  32896       activation_104[0][0]             
__________________________________________________________________________________________________
bn3a_branch2a (BatchNormalizati (None, 38, 38, 128)  512         res3a_branch2a[0][0]             
__________________________________________________________________________________________________
activation_105 (Activation)     (None, 38, 38, 128)  0           bn3a_branch2a[0][0]              
__________________________________________________________________________________________________
res3a_branch2b (Conv2D)         (None, 38, 38, 128)  147584      activation_105[0][0]             
__________________________________________________________________________________________________
bn3a_branch2b (BatchNormalizati (None, 38, 38, 128)  512         res3a_branch2b[0][0]             
__________________________________________________________________________________________________
activation_106 (Activation)     (None, 38, 38, 128)  0           bn3a_branch2b[0][0]              
__________________________________________________________________________________________________
res3a_branch2c (Conv2D)         (None, 38, 38, 512)  66048       activation_106[0][0]             
__________________________________________________________________________________________________
res3a_branch1 (Conv2D)          (None, 38, 38, 512)  131584      activation_104[0][0]             
__________________________________________________________________________________________________
bn3a_branch2c (BatchNormalizati (None, 38, 38, 512)  2048        res3a_branch2c[0][0]             
__________________________________________________________________________________________________
bn3a_branch1 (BatchNormalizatio (None, 38, 38, 512)  2048        res3a_branch1[0][0]              
__________________________________________________________________________________________________
add_4 (Add)                     (None, 38, 38, 512)  0           bn3a_branch2c[0][0]              
                                                                 bn3a_branch1[0][0]               
__________________________________________________________________________________________________
activation_107 (Activation)     (None, 38, 38, 512)  0           add_4[0][0]                      
__________________________________________________________________________________________________
res3b_branch2a (Conv2D)         (None, 38, 38, 128)  65664       activation_107[0][0]             
__________________________________________________________________________________________________
bn3b_branch2a (BatchNormalizati (None, 38, 38, 128)  512         res3b_branch2a[0][0]             
__________________________________________________________________________________________________
activation_108 (Activation)     (None, 38, 38, 128)  0           bn3b_branch2a[0][0]              
__________________________________________________________________________________________________
res3b_branch2b (Conv2D)         (None, 38, 38, 128)  147584      activation_108[0][0]             
__________________________________________________________________________________________________
bn3b_branch2b (BatchNormalizati (None, 38, 38, 128)  512         res3b_branch2b[0][0]             
__________________________________________________________________________________________________
activation_109 (Activation)     (None, 38, 38, 128)  0           bn3b_branch2b[0][0]              
__________________________________________________________________________________________________
res3b_branch2c (Conv2D)         (None, 38, 38, 512)  66048       activation_109[0][0]             
__________________________________________________________________________________________________
bn3b_branch2c (BatchNormalizati (None, 38, 38, 512)  2048        res3b_branch2c[0][0]             
__________________________________________________________________________________________________
add_5 (Add)                     (None, 38, 38, 512)  0           bn3b_branch2c[0][0]              
                                                                 activation_107[0][0]             
__________________________________________________________________________________________________
activation_110 (Activation)     (None, 38, 38, 512)  0           add_5[0][0]                      
__________________________________________________________________________________________________
res3c_branch2a (Conv2D)         (None, 38, 38, 128)  65664       activation_110[0][0]             
__________________________________________________________________________________________________
bn3c_branch2a (BatchNormalizati (None, 38, 38, 128)  512         res3c_branch2a[0][0]             
__________________________________________________________________________________________________
activation_111 (Activation)     (None, 38, 38, 128)  0           bn3c_branch2a[0][0]              
__________________________________________________________________________________________________
res3c_branch2b (Conv2D)         (None, 38, 38, 128)  147584      activation_111[0][0]             
__________________________________________________________________________________________________
bn3c_branch2b (BatchNormalizati (None, 38, 38, 128)  512         res3c_branch2b[0][0]             
__________________________________________________________________________________________________
activation_112 (Activation)     (None, 38, 38, 128)  0           bn3c_branch2b[0][0]              
__________________________________________________________________________________________________
res3c_branch2c (Conv2D)         (None, 38, 38, 512)  66048       activation_112[0][0]             
__________________________________________________________________________________________________
bn3c_branch2c (BatchNormalizati (None, 38, 38, 512)  2048        res3c_branch2c[0][0]             
__________________________________________________________________________________________________
add_6 (Add)                     (None, 38, 38, 512)  0           bn3c_branch2c[0][0]              
                                                                 activation_110[0][0]             
__________________________________________________________________________________________________
activation_113 (Activation)     (None, 38, 38, 512)  0           add_6[0][0]                      
__________________________________________________________________________________________________
res3d_branch2a (Conv2D)         (None, 38, 38, 128)  65664       activation_113[0][0]             
__________________________________________________________________________________________________
bn3d_branch2a (BatchNormalizati (None, 38, 38, 128)  512         res3d_branch2a[0][0]             
__________________________________________________________________________________________________
activation_114 (Activation)     (None, 38, 38, 128)  0           bn3d_branch2a[0][0]              
__________________________________________________________________________________________________
res3d_branch2b (Conv2D)         (None, 38, 38, 128)  147584      activation_114[0][0]             
__________________________________________________________________________________________________
bn3d_branch2b (BatchNormalizati (None, 38, 38, 128)  512         res3d_branch2b[0][0]             
__________________________________________________________________________________________________
activation_115 (Activation)     (None, 38, 38, 128)  0           bn3d_branch2b[0][0]              
__________________________________________________________________________________________________
res3d_branch2c (Conv2D)         (None, 38, 38, 512)  66048       activation_115[0][0]             
__________________________________________________________________________________________________
bn3d_branch2c (BatchNormalizati (None, 38, 38, 512)  2048        res3d_branch2c[0][0]             
__________________________________________________________________________________________________
add_7 (Add)                     (None, 38, 38, 512)  0           bn3d_branch2c[0][0]              
                                                                 activation_113[0][0]             
__________________________________________________________________________________________________
activation_116 (Activation)     (None, 38, 38, 512)  0           add_7[0][0]                      
__________________________________________________________________________________________________
res4a_branch2a (Conv2D)         (None, 19, 19, 256)  131328      activation_116[0][0]             
__________________________________________________________________________________________________
bn4a_branch2a (BatchNormalizati (None, 19, 19, 256)  1024        res4a_branch2a[0][0]             
__________________________________________________________________________________________________
activation_117 (Activation)     (None, 19, 19, 256)  0           bn4a_branch2a[0][0]              
__________________________________________________________________________________________________
res4a_branch2b (Conv2D)         (None, 19, 19, 256)  590080      activation_117[0][0]             
__________________________________________________________________________________________________
bn4a_branch2b (BatchNormalizati (None, 19, 19, 256)  1024        res4a_branch2b[0][0]             
__________________________________________________________________________________________________
activation_118 (Activation)     (None, 19, 19, 256)  0           bn4a_branch2b[0][0]              
__________________________________________________________________________________________________
res4a_branch2c (Conv2D)         (None, 19, 19, 1024) 263168      activation_118[0][0]             
__________________________________________________________________________________________________
res4a_branch1 (Conv2D)          (None, 19, 19, 1024) 525312      activation_116[0][0]             
__________________________________________________________________________________________________
bn4a_branch2c (BatchNormalizati (None, 19, 19, 1024) 4096        res4a_branch2c[0][0]             
__________________________________________________________________________________________________
bn4a_branch1 (BatchNormalizatio (None, 19, 19, 1024) 4096        res4a_branch1[0][0]              
__________________________________________________________________________________________________
add_8 (Add)                     (None, 19, 19, 1024) 0           bn4a_branch2c[0][0]              
                                                                 bn4a_branch1[0][0]               
__________________________________________________________________________________________________
activation_119 (Activation)     (None, 19, 19, 1024) 0           add_8[0][0]                      
__________________________________________________________________________________________________
res4b_branch2a (Conv2D)         (None, 19, 19, 256)  262400      activation_119[0][0]             
__________________________________________________________________________________________________
bn4b_branch2a (BatchNormalizati (None, 19, 19, 256)  1024        res4b_branch2a[0][0]             
__________________________________________________________________________________________________
activation_120 (Activation)     (None, 19, 19, 256)  0           bn4b_branch2a[0][0]              
__________________________________________________________________________________________________
res4b_branch2b (Conv2D)         (None, 19, 19, 256)  590080      activation_120[0][0]             
__________________________________________________________________________________________________
bn4b_branch2b (BatchNormalizati (None, 19, 19, 256)  1024        res4b_branch2b[0][0]             
__________________________________________________________________________________________________
activation_121 (Activation)     (None, 19, 19, 256)  0           bn4b_branch2b[0][0]              
__________________________________________________________________________________________________
res4b_branch2c (Conv2D)         (None, 19, 19, 1024) 263168      activation_121[0][0]             
__________________________________________________________________________________________________
bn4b_branch2c (BatchNormalizati (None, 19, 19, 1024) 4096        res4b_branch2c[0][0]             
__________________________________________________________________________________________________
add_9 (Add)                     (None, 19, 19, 1024) 0           bn4b_branch2c[0][0]              
                                                                 activation_119[0][0]             
__________________________________________________________________________________________________
activation_122 (Activation)     (None, 19, 19, 1024) 0           add_9[0][0]                      
__________________________________________________________________________________________________
res4c_branch2a (Conv2D)         (None, 19, 19, 256)  262400      activation_122[0][0]             
__________________________________________________________________________________________________
bn4c_branch2a (BatchNormalizati (None, 19, 19, 256)  1024        res4c_branch2a[0][0]             
__________________________________________________________________________________________________
activation_123 (Activation)     (None, 19, 19, 256)  0           bn4c_branch2a[0][0]              
__________________________________________________________________________________________________
res4c_branch2b (Conv2D)         (None, 19, 19, 256)  590080      activation_123[0][0]             
__________________________________________________________________________________________________
bn4c_branch2b (BatchNormalizati (None, 19, 19, 256)  1024        res4c_branch2b[0][0]             
__________________________________________________________________________________________________
activation_124 (Activation)     (None, 19, 19, 256)  0           bn4c_branch2b[0][0]              
__________________________________________________________________________________________________
res4c_branch2c (Conv2D)         (None, 19, 19, 1024) 263168      activation_124[0][0]             
__________________________________________________________________________________________________
bn4c_branch2c (BatchNormalizati (None, 19, 19, 1024) 4096        res4c_branch2c[0][0]             
__________________________________________________________________________________________________
add_10 (Add)                    (None, 19, 19, 1024) 0           bn4c_branch2c[0][0]              
                                                                 activation_122[0][0]             
__________________________________________________________________________________________________
activation_125 (Activation)     (None, 19, 19, 1024) 0           add_10[0][0]                     
__________________________________________________________________________________________________
res4d_branch2a (Conv2D)         (None, 19, 19, 256)  262400      activation_125[0][0]             
__________________________________________________________________________________________________
bn4d_branch2a (BatchNormalizati (None, 19, 19, 256)  1024        res4d_branch2a[0][0]             
__________________________________________________________________________________________________
activation_126 (Activation)     (None, 19, 19, 256)  0           bn4d_branch2a[0][0]              
__________________________________________________________________________________________________
res4d_branch2b (Conv2D)         (None, 19, 19, 256)  590080      activation_126[0][0]             
__________________________________________________________________________________________________
bn4d_branch2b (BatchNormalizati (None, 19, 19, 256)  1024        res4d_branch2b[0][0]             
__________________________________________________________________________________________________
activation_127 (Activation)     (None, 19, 19, 256)  0           bn4d_branch2b[0][0]              
__________________________________________________________________________________________________
res4d_branch2c (Conv2D)         (None, 19, 19, 1024) 263168      activation_127[0][0]             
__________________________________________________________________________________________________
bn4d_branch2c (BatchNormalizati (None, 19, 19, 1024) 4096        res4d_branch2c[0][0]             
__________________________________________________________________________________________________
add_11 (Add)                    (None, 19, 19, 1024) 0           bn4d_branch2c[0][0]              
                                                                 activation_125[0][0]             
__________________________________________________________________________________________________
activation_128 (Activation)     (None, 19, 19, 1024) 0           add_11[0][0]                     
__________________________________________________________________________________________________
res4e_branch2a (Conv2D)         (None, 19, 19, 256)  262400      activation_128[0][0]             
__________________________________________________________________________________________________
bn4e_branch2a (BatchNormalizati (None, 19, 19, 256)  1024        res4e_branch2a[0][0]             
__________________________________________________________________________________________________
activation_129 (Activation)     (None, 19, 19, 256)  0           bn4e_branch2a[0][0]              
__________________________________________________________________________________________________
res4e_branch2b (Conv2D)         (None, 19, 19, 256)  590080      activation_129[0][0]             
__________________________________________________________________________________________________
bn4e_branch2b (BatchNormalizati (None, 19, 19, 256)  1024        res4e_branch2b[0][0]             
__________________________________________________________________________________________________
activation_130 (Activation)     (None, 19, 19, 256)  0           bn4e_branch2b[0][0]              
__________________________________________________________________________________________________
res4e_branch2c (Conv2D)         (None, 19, 19, 1024) 263168      activation_130[0][0]             
__________________________________________________________________________________________________
bn4e_branch2c (BatchNormalizati (None, 19, 19, 1024) 4096        res4e_branch2c[0][0]             
__________________________________________________________________________________________________
add_12 (Add)                    (None, 19, 19, 1024) 0           bn4e_branch2c[0][0]              
                                                                 activation_128[0][0]             
__________________________________________________________________________________________________
activation_131 (Activation)     (None, 19, 19, 1024) 0           add_12[0][0]                     
__________________________________________________________________________________________________
res4f_branch2a (Conv2D)         (None, 19, 19, 256)  262400      activation_131[0][0]             
__________________________________________________________________________________________________
bn4f_branch2a (BatchNormalizati (None, 19, 19, 256)  1024        res4f_branch2a[0][0]             
__________________________________________________________________________________________________
activation_132 (Activation)     (None, 19, 19, 256)  0           bn4f_branch2a[0][0]              
__________________________________________________________________________________________________
res4f_branch2b (Conv2D)         (None, 19, 19, 256)  590080      activation_132[0][0]             
__________________________________________________________________________________________________
bn4f_branch2b (BatchNormalizati (None, 19, 19, 256)  1024        res4f_branch2b[0][0]             
__________________________________________________________________________________________________
activation_133 (Activation)     (None, 19, 19, 256)  0           bn4f_branch2b[0][0]              
__________________________________________________________________________________________________
res4f_branch2c (Conv2D)         (None, 19, 19, 1024) 263168      activation_133[0][0]             
__________________________________________________________________________________________________
bn4f_branch2c (BatchNormalizati (None, 19, 19, 1024) 4096        res4f_branch2c[0][0]             
__________________________________________________________________________________________________
add_13 (Add)                    (None, 19, 19, 1024) 0           bn4f_branch2c[0][0]              
                                                                 activation_131[0][0]             
__________________________________________________________________________________________________
activation_134 (Activation)     (None, 19, 19, 1024) 0           add_13[0][0]                     
__________________________________________________________________________________________________
res5a_branch2a (Conv2D)         (None, 10, 10, 512)  524800      activation_134[0][0]             
__________________________________________________________________________________________________
bn5a_branch2a (BatchNormalizati (None, 10, 10, 512)  2048        res5a_branch2a[0][0]             
__________________________________________________________________________________________________
activation_135 (Activation)     (None, 10, 10, 512)  0           bn5a_branch2a[0][0]              
__________________________________________________________________________________________________
res5a_branch2b (Conv2D)         (None, 10, 10, 512)  2359808     activation_135[0][0]             
__________________________________________________________________________________________________
bn5a_branch2b (BatchNormalizati (None, 10, 10, 512)  2048        res5a_branch2b[0][0]             
__________________________________________________________________________________________________
activation_136 (Activation)     (None, 10, 10, 512)  0           bn5a_branch2b[0][0]              
__________________________________________________________________________________________________
res5a_branch2c (Conv2D)         (None, 10, 10, 2048) 1050624     activation_136[0][0]             
__________________________________________________________________________________________________
res5a_branch1 (Conv2D)          (None, 10, 10, 2048) 2099200     activation_134[0][0]             
__________________________________________________________________________________________________
bn5a_branch2c (BatchNormalizati (None, 10, 10, 2048) 8192        res5a_branch2c[0][0]             
__________________________________________________________________________________________________
bn5a_branch1 (BatchNormalizatio (None, 10, 10, 2048) 8192        res5a_branch1[0][0]              
__________________________________________________________________________________________________
add_14 (Add)                    (None, 10, 10, 2048) 0           bn5a_branch2c[0][0]              
                                                                 bn5a_branch1[0][0]               
__________________________________________________________________________________________________
activation_137 (Activation)     (None, 10, 10, 2048) 0           add_14[0][0]                     
__________________________________________________________________________________________________
res5b_branch2a (Conv2D)         (None, 10, 10, 512)  1049088     activation_137[0][0]             
__________________________________________________________________________________________________
bn5b_branch2a (BatchNormalizati (None, 10, 10, 512)  2048        res5b_branch2a[0][0]             
__________________________________________________________________________________________________
activation_138 (Activation)     (None, 10, 10, 512)  0           bn5b_branch2a[0][0]              
__________________________________________________________________________________________________
res5b_branch2b (Conv2D)         (None, 10, 10, 512)  2359808     activation_138[0][0]             
__________________________________________________________________________________________________
bn5b_branch2b (BatchNormalizati (None, 10, 10, 512)  2048        res5b_branch2b[0][0]             
__________________________________________________________________________________________________
activation_139 (Activation)     (None, 10, 10, 512)  0           bn5b_branch2b[0][0]              
__________________________________________________________________________________________________
res5b_branch2c (Conv2D)         (None, 10, 10, 2048) 1050624     activation_139[0][0]             
__________________________________________________________________________________________________
bn5b_branch2c (BatchNormalizati (None, 10, 10, 2048) 8192        res5b_branch2c[0][0]             
__________________________________________________________________________________________________
add_15 (Add)                    (None, 10, 10, 2048) 0           bn5b_branch2c[0][0]              
                                                                 activation_137[0][0]             
__________________________________________________________________________________________________
activation_140 (Activation)     (None, 10, 10, 2048) 0           add_15[0][0]                     
__________________________________________________________________________________________________
res5c_branch2a (Conv2D)         (None, 10, 10, 512)  1049088     activation_140[0][0]             
__________________________________________________________________________________________________
bn5c_branch2a (BatchNormalizati (None, 10, 10, 512)  2048        res5c_branch2a[0][0]             
__________________________________________________________________________________________________
activation_141 (Activation)     (None, 10, 10, 512)  0           bn5c_branch2a[0][0]              
__________________________________________________________________________________________________
res5c_branch2b (Conv2D)         (None, 10, 10, 512)  2359808     activation_141[0][0]             
__________________________________________________________________________________________________
bn5c_branch2b (BatchNormalizati (None, 10, 10, 512)  2048        res5c_branch2b[0][0]             
__________________________________________________________________________________________________
activation_142 (Activation)     (None, 10, 10, 512)  0           bn5c_branch2b[0][0]              
__________________________________________________________________________________________________
res5c_branch2c (Conv2D)         (None, 10, 10, 2048) 1050624     activation_142[0][0]             
__________________________________________________________________________________________________
bn5c_branch2c (BatchNormalizati (None, 10, 10, 2048) 8192        res5c_branch2c[0][0]             
__________________________________________________________________________________________________
add_16 (Add)                    (None, 10, 10, 2048) 0           bn5c_branch2c[0][0]              
                                                                 activation_140[0][0]             
__________________________________________________________________________________________________
activation_143 (Activation)     (None, 10, 10, 2048) 0           add_16[0][0]                     
__________________________________________________________________________________________________
global_average_pooling2d_2 (Glo (None, 2048)         0           activation_143[0][0]             
__________________________________________________________________________________________________
dense_5 (Dense)                 (None, 4)            8196        global_average_pooling2d_2[0][0] 
==================================================================================================
Total params: 23,595,908
Trainable params: 61,316
Non-trainable params: 23,534,592
__________________________________________________________________________________________________
None
Train on 8 samples, validate on 20 samples
Epoch 1/3

2/8 [======>.......................] - ETA: 41s - loss: 1.5859 - acc: 0.5000 - categorical_crossentropy: 1.5859
…
6/8 [=====================>........] - ETA: 0s - loss: 1.3059 - acc: 0.3333 - categorical_crossentropy: 1.3059
8/8 [==============================] - 0s 57ms/step - loss: 1.3690 - acc: 0.2500 - categorical_crossentropy: 1.3690 - val_loss: 1.4456 - val_acc: 0.3000 - val_categorical_crossentropy: 1.4456
training time: 0.013464027444521586 h
loading data
Xception
__________________________________________________________________________________________________
Layer (type)                    Output Shape         Param #     Connected to                     
==================================================================================================
input_4 (InputLayer)            (None, 299, 299, 3)  0                                            
__________________________________________________________________________________________________
block1_conv1 (Conv2D)           (None, 149, 149, 32) 864         input_4[0][0]                    
__________________________________________________________________________________________________
block1_conv1_bn (BatchNormaliza (None, 149, 149, 32) 128         block1_conv1[0][0]               
__________________________________________________________________________________________________
block1_conv1_act (Activation)   (None, 149, 149, 32) 0           block1_conv1_bn[0][0]            
__________________________________________________________________________________________________
block1_conv2 (Conv2D)           (None, 147, 147, 64) 18432       block1_conv1_act[0][0]           
__________________________________________________________________________________________________
block1_conv2_bn (BatchNormaliza (None, 147, 147, 64) 256         block1_conv2[0][0]               
__________________________________________________________________________________________________
block1_conv2_act (Activation)   (None, 147, 147, 64) 0           block1_conv2_bn[0][0]            
__________________________________________________________________________________________________
block2_sepconv1 (SeparableConv2 (None, 147, 147, 128 8768        block1_conv2_act[0][0]           
__________________________________________________________________________________________________
block2_sepconv1_bn (BatchNormal (None, 147, 147, 128 512         block2_sepconv1[0][0]            
…
block2_sepconv2_act (Activation (None, 147, 147, 128 0           block2_sepconv1_bn[0][0]         
__________________________________________________________________________________________________
block2_sepconv2 (SeparableConv2 (None, 147, 147, 128 17536       block2_sepconv2_act[0][0]        
__________________________________________________________________________________________________
block2_sepconv2_bn (BatchNormal (None, 147, 147, 128 512         block2_sepconv2[0][0]            
__________________________________________________________________________________________________
conv2d_95 (Conv2D)              (None, 74, 74, 128)  8192        block1_conv2_act[0][0]           
__________________________________________________________________________________________________
block2_pool (MaxPooling2D)      (None, 74, 74, 128)  0           block2_sepconv2_bn[0][0]         
__________________________________________________________________________________________________
batch_normalization_95 (BatchNo (None, 74, 74, 128)  512         conv2d_95[0][0]                  
__________________________________________________________________________________________________
add_17 (Add)                    (None, 74, 74, 128)  0           block2_pool[0][0]                
                                                                 batch_normalization_95[0][0]     
__________________________________________________________________________________________________
block3_sepconv1_act (Activation (None, 74, 74, 128)  0           add_17[0][0]                     
__________________________________________________________________________________________________
block3_sepconv1 (SeparableConv2 (None, 74, 74, 256)  33920       block3_sepconv1_act[0][0]        
__________________________________________________________________________________________________
block3_sepconv1_bn (BatchNormal (None, 74, 74, 256)  1024        block3_sepconv1[0][0]            
__________________________________________________________________________________________________
block3_sepconv2_act (Activation (None, 74, 74, 256)  0           block3_sepconv1_bn[0][0]         
__________________________________________________________________________________________________
block3_sepconv2 (SeparableConv2 (None, 74, 74, 256)  67840       block3_sepconv2_act[0][0]        
__________________________________________________________________________________________________
block3_sepconv2_bn (BatchNormal (None, 74, 74, 256)  1024        block3_sepconv2[0][0]            
__________________________________________________________________________________________________
conv2d_96 (Conv2D)              (None, 37, 37, 256)  32768       add_17[0][0]                     
__________________________________________________________________________________________________
block3_pool (MaxPooling2D)      (None, 37, 37, 256)  0           block3_sepconv2_bn[0][0]         
__________________________________________________________________________________________________
batch_normalization_96 (BatchNo (None, 37, 37, 256)  1024        conv2d_96[0][0]                  
__________________________________________________________________________________________________
add_18 (Add)                    (None, 37, 37, 256)  0           block3_pool[0][0]                
                                                                 batch_normalization_96[0][0]     
__________________________________________________________________________________________________
block4_sepconv1_act (Activation (None, 37, 37, 256)  0           add_18[0][0]                     
__________________________________________________________________________________________________
block4_sepconv1 (SeparableConv2 (None, 37, 37, 728)  188672      block4_sepconv1_act[0][0]        
__________________________________________________________________________________________________
block4_sepconv1_bn (BatchNormal (None, 37, 37, 728)  2912        block4_sepconv1[0][0]            
__________________________________________________________________________________________________
block4_sepconv2_act (Activation (None, 37, 37, 728)  0           block4_sepconv1_bn[0][0]         
__________________________________________________________________________________________________
block4_sepconv2 (SeparableConv2 (None, 37, 37, 728)  536536      block4_sepconv2_act[0][0]        
__________________________________________________________________________________________________
block4_sepconv2_bn (BatchNormal (None, 37, 37, 728)  2912        block4_sepconv2[0][0]            
__________________________________________________________________________________________________
conv2d_97 (Conv2D)              (None, 19, 19, 728)  186368      add_18[0][0]                     
__________________________________________________________________________________________________
block4_pool (MaxPooling2D)      (None, 19, 19, 728)  0           block4_sepconv2_bn[0][0]         
__________________________________________________________________________________________________
batch_normalization_97 (BatchNo (None, 19, 19, 728)  2912        conv2d_97[0][0]                  
__________________________________________________________________________________________________
add_19 (Add)                    (None, 19, 19, 728)  0           block4_pool[0][0]                
                                                                 batch_normalization_97[0][0]     
__________________________________________________________________________________________________
block5_sepconv1_act (Activation (None, 19, 19, 728)  0           add_19[0][0]                     
__________________________________________________________________________________________________
block5_sepconv1 (SeparableConv2 (None, 19, 19, 728)  536536      block5_sepconv1_act[0][0]        
__________________________________________________________________________________________________
block5_sepconv1_bn (BatchNormal (None, 19, 19, 728)  2912        block5_sepconv1[0][0]            
__________________________________________________________________________________________________
block5_sepconv2_act (Activation (None, 19, 19, 728)  0           block5_sepconv1_bn[0][0]         
__________________________________________________________________________________________________
block5_sepconv2 (SeparableConv2 (None, 19, 19, 728)  536536      block5_sepconv2_act[0][0]        
__________________________________________________________________________________________________
block5_sepconv2_bn (BatchNormal (None, 19, 19, 728)  2912        block5_sepconv2[0][0]            
__________________________________________________________________________________________________
block5_sepconv3_act (Activation (None, 19, 19, 728)  0           block5_sepconv2_bn[0][0]         
__________________________________________________________________________________________________
block5_sepconv3 (SeparableConv2 (None, 19, 19, 728)  536536      block5_sepconv3_act[0][0]        
__________________________________________________________________________________________________
block5_sepconv3_bn (BatchNormal (None, 19, 19, 728)  2912        block5_sepconv3[0][0]            
__________________________________________________________________________________________________
add_20 (Add)                    (None, 19, 19, 728)  0           block5_sepconv3_bn[0][0]         
                                                                 add_19[0][0]                     
__________________________________________________________________________________________________
block6_sepconv1_act (Activation (None, 19, 19, 728)  0           add_20[0][0]                     
__________________________________________________________________________________________________
block6_sepconv1 (SeparableConv2 (None, 19, 19, 728)  536536      block6_sepconv1_act[0][0]        
__________________________________________________________________________________________________
block6_sepconv1_bn (BatchNormal (None, 19, 19, 728)  2912        block6_sepconv1[0][0]            
__________________________________________________________________________________________________
block6_sepconv2_act (Activation (None, 19, 19, 728)  0           block6_sepconv1_bn[0][0]         
__________________________________________________________________________________________________
block6_sepconv2 (SeparableConv2 (None, 19, 19, 728)  536536      block6_sepconv2_act[0][0]        
__________________________________________________________________________________________________
block6_sepconv2_bn (BatchNormal (None, 19, 19, 728)  2912        block6_sepconv2[0][0]            
__________________________________________________________________________________________________
block6_sepconv3_act (Activation (None, 19, 19, 728)  0           block6_sepconv2_bn[0][0]         
__________________________________________________________________________________________________
block6_sepconv3 (SeparableConv2 (None, 19, 19, 728)  536536      block6_sepconv3_act[0][0]        
__________________________________________________________________________________________________
block6_sepconv3_bn (BatchNormal (None, 19, 19, 728)  2912        block6_sepconv3[0][0]            
__________________________________________________________________________________________________
add_21 (Add)                    (None, 19, 19, 728)  0           block6_sepconv3_bn[0][0]         
                                                                 add_20[0][0]                     
__________________________________________________________________________________________________
block7_sepconv1_act (Activation (None, 19, 19, 728)  0           add_21[0][0]                     
__________________________________________________________________________________________________
block7_sepconv1 (SeparableConv2 (None, 19, 19, 728)  536536      block7_sepconv1_act[0][0]        
__________________________________________________________________________________________________
block7_sepconv1_bn (BatchNormal (None, 19, 19, 728)  2912        block7_sepconv1[0][0]            
__________________________________________________________________________________________________
block7_sepconv2_act (Activation (None, 19, 19, 728)  0           block7_sepconv1_bn[0][0]         
__________________________________________________________________________________________________
block7_sepconv2 (SeparableConv2 (None, 19, 19, 728)  536536      block7_sepconv2_act[0][0]        
__________________________________________________________________________________________________
block7_sepconv2_bn (BatchNormal (None, 19, 19, 728)  2912        block7_sepconv2[0][0]            
__________________________________________________________________________________________________
block7_sepconv3_act (Activation (None, 19, 19, 728)  0           block7_sepconv2_bn[0][0]         
__________________________________________________________________________________________________
block7_sepconv3 (SeparableConv2 (None, 19, 19, 728)  536536      block7_sepconv3_act[0][0]        
__________________________________________________________________________________________________
block7_sepconv3_bn (BatchNormal (None, 19, 19, 728)  2912        block7_sepconv3[0][0]            
__________________________________________________________________________________________________
add_22 (Add)                    (None, 19, 19, 728)  0           block7_sepconv3_bn[0][0]         
                                                                 add_21[0][0]                     
__________________________________________________________________________________________________
block8_sepconv1_act (Activation (None, 19, 19, 728)  0           add_22[0][0]                     
__________________________________________________________________________________________________
block8_sepconv1 (SeparableConv2 (None, 19, 19, 728)  536536      block8_sepconv1_act[0][0]        
__________________________________________________________________________________________________
block8_sepconv1_bn (BatchNormal (None, 19, 19, 728)  2912        block8_sepconv1[0][0]            
__________________________________________________________________________________________________
block8_sepconv2_act (Activation (None, 19, 19, 728)  0           block8_sepconv1_bn[0][0]         
__________________________________________________________________________________________________
block8_sepconv2 (SeparableConv2 (None, 19, 19, 728)  536536      block8_sepconv2_act[0][0]        
__________________________________________________________________________________________________
block8_sepconv2_bn (BatchNormal (None, 19, 19, 728)  2912        block8_sepconv2[0][0]            
__________________________________________________________________________________________________
block8_sepconv3_act (Activation (None, 19, 19, 728)  0           block8_sepconv2_bn[0][0]         
__________________________________________________________________________________________________
block8_sepconv3 (SeparableConv2 (None, 19, 19, 728)  536536      block8_sepconv3_act[0][0]        
__________________________________________________________________________________________________
block8_sepconv3_bn (BatchNormal (None, 19, 19, 728)  2912        block8_sepconv3[0][0]            
__________________________________________________________________________________________________
add_23 (Add)                    (None, 19, 19, 728)  0           block8_sepconv3_bn[0][0]         
                                                                 add_22[0][0]                     
__________________________________________________________________________________________________
block9_sepconv1_act (Activation (None, 19, 19, 728)  0           add_23[0][0]                     
__________________________________________________________________________________________________
block9_sepconv1 (SeparableConv2 (None, 19, 19, 728)  536536      block9_sepconv1_act[0][0]        
__________________________________________________________________________________________________
block9_sepconv1_bn (BatchNormal (None, 19, 19, 728)  2912        block9_sepconv1[0][0]            
__________________________________________________________________________________________________
block9_sepconv2_act (Activation (None, 19, 19, 728)  0           block9_sepconv1_bn[0][0]         
__________________________________________________________________________________________________
block9_sepconv2 (SeparableConv2 (None, 19, 19, 728)  536536      block9_sepconv2_act[0][0]        
__________________________________________________________________________________________________
block9_sepconv2_bn (BatchNormal (None, 19, 19, 728)  2912        block9_sepconv2[0][0]            
__________________________________________________________________________________________________
block9_sepconv3_act (Activation (None, 19, 19, 728)  0           block9_sepconv2_bn[0][0]         
__________________________________________________________________________________________________
block9_sepconv3 (SeparableConv2 (None, 19, 19, 728)  536536      block9_sepconv3_act[0][0]        
__________________________________________________________________________________________________
block9_sepconv3_bn (BatchNormal (None, 19, 19, 728)  2912        block9_sepconv3[0][0]            
__________________________________________________________________________________________________
add_24 (Add)                    (None, 19, 19, 728)  0           block9_sepconv3_bn[0][0]         
                                                                 add_23[0][0]                     
__________________________________________________________________________________________________
block10_sepconv1_act (Activatio (None, 19, 19, 728)  0           add_24[0][0]                     
__________________________________________________________________________________________________
block10_sepconv1 (SeparableConv (None, 19, 19, 728)  536536      block10_sepconv1_act[0][0]       
__________________________________________________________________________________________________
block10_sepconv1_bn (BatchNorma (None, 19, 19, 728)  2912        block10_sepconv1[0][0]           
__________________________________________________________________________________________________
block10_sepconv2_act (Activatio (None, 19, 19, 728)  0           block10_sepconv1_bn[0][0]        
__________________________________________________________________________________________________
block10_sepconv2 (SeparableConv (None, 19, 19, 728)  536536      block10_sepconv2_act[0][0]       
__________________________________________________________________________________________________
block10_sepconv2_bn (BatchNorma (None, 19, 19, 728)  2912        block10_sepconv2[0][0]           
__________________________________________________________________________________________________
block10_sepconv3_act (Activatio (None, 19, 19, 728)  0           block10_sepconv2_bn[0][0]        
__________________________________________________________________________________________________
block10_sepconv3 (SeparableConv (None, 19, 19, 728)  536536      block10_sepconv3_act[0][0]       
__________________________________________________________________________________________________
block10_sepconv3_bn (BatchNorma (None, 19, 19, 728)  2912        block10_sepconv3[0][0]           
__________________________________________________________________________________________________
add_25 (Add)                    (None, 19, 19, 728)  0           block10_sepconv3_bn[0][0]        
                                                                 add_24[0][0]                     
__________________________________________________________________________________________________
block11_sepconv1_act (Activatio (None, 19, 19, 728)  0           add_25[0][0]                     
__________________________________________________________________________________________________
block11_sepconv1 (SeparableConv (None, 19, 19, 728)  536536      block11_sepconv1_act[0][0]       
__________________________________________________________________________________________________
block11_sepconv1_bn (BatchNorma (None, 19, 19, 728)  2912        block11_sepconv1[0][0]           
__________________________________________________________________________________________________
block11_sepconv2_act (Activatio (None, 19, 19, 728)  0           block11_sepconv1_bn[0][0]        
__________________________________________________________________________________________________
block11_sepconv2 (SeparableConv (None, 19, 19, 728)  536536      block11_sepconv2_act[0][0]       
__________________________________________________________________________________________________
block11_sepconv2_bn (BatchNorma (None, 19, 19, 728)  2912        block11_sepconv2[0][0]           
__________________________________________________________________________________________________
block11_sepconv3_act (Activatio (None, 19, 19, 728)  0           block11_sepconv2_bn[0][0]        
__________________________________________________________________________________________________
block11_sepconv3 (SeparableConv (None, 19, 19, 728)  536536      block11_sepconv3_act[0][0]       
__________________________________________________________________________________________________
block11_sepconv3_bn (BatchNorma (None, 19, 19, 728)  2912        block11_sepconv3[0][0]           
__________________________________________________________________________________________________
add_26 (Add)                    (None, 19, 19, 728)  0           block11_sepconv3_bn[0][0]        
                                                                 add_25[0][0]                     
__________________________________________________________________________________________________
block12_sepconv1_act (Activatio (None, 19, 19, 728)  0           add_26[0][0]                     
__________________________________________________________________________________________________
block12_sepconv1 (SeparableConv (None, 19, 19, 728)  536536      block12_sepconv1_act[0][0]       
__________________________________________________________________________________________________
block12_sepconv1_bn (BatchNorma (None, 19, 19, 728)  2912        block12_sepconv1[0][0]           
__________________________________________________________________________________________________
block12_sepconv2_act (Activatio (None, 19, 19, 728)  0           block12_sepconv1_bn[0][0]        
__________________________________________________________________________________________________
block12_sepconv2 (SeparableConv (None, 19, 19, 728)  536536      block12_sepconv2_act[0][0]       
__________________________________________________________________________________________________
block12_sepconv2_bn (BatchNorma (None, 19, 19, 728)  2912        block12_sepconv2[0][0]           
__________________________________________________________________________________________________
block12_sepconv3_act (Activatio (None, 19, 19, 728)  0           block12_sepconv2_bn[0][0]        
__________________________________________________________________________________________________
block12_sepconv3 (SeparableConv (None, 19, 19, 728)  536536      block12_sepconv3_act[0][0]       
__________________________________________________________________________________________________
block12_sepconv3_bn (BatchNorma (None, 19, 19, 728)  2912        block12_sepconv3[0][0]           
__________________________________________________________________________________________________
add_27 (Add)                    (None, 19, 19, 728)  0           block12_sepconv3_bn[0][0]        
                                                                 add_26[0][0]                     
__________________________________________________________________________________________________
block13_sepconv1_act (Activatio (None, 19, 19, 728)  0           add_27[0][0]                     
__________________________________________________________________________________________________
block13_sepconv1 (SeparableConv (None, 19, 19, 728)  536536      block13_sepconv1_act[0][0]       
__________________________________________________________________________________________________
block13_sepconv1_bn (BatchNorma (None, 19, 19, 728)  2912        block13_sepconv1[0][0]           
__________________________________________________________________________________________________
block13_sepconv2_act (Activatio (None, 19, 19, 728)  0           block13_sepconv1_bn[0][0]        
__________________________________________________________________________________________________
block13_sepconv2 (SeparableConv (None, 19, 19, 1024) 752024      block13_sepconv2_act[0][0]       
__________________________________________________________________________________________________
block13_sepconv2_bn (BatchNorma (None, 19, 19, 1024) 4096        block13_sepconv2[0][0]           
__________________________________________________________________________________________________
conv2d_98 (Conv2D)              (None, 10, 10, 1024) 745472      add_27[0][0]                     
__________________________________________________________________________________________________
block13_pool (MaxPooling2D)     (None, 10, 10, 1024) 0           block13_sepconv2_bn[0][0]        
__________________________________________________________________________________________________
batch_normalization_98 (BatchNo (None, 10, 10, 1024) 4096        conv2d_98[0][0]                  
__________________________________________________________________________________________________
add_28 (Add)                    (None, 10, 10, 1024) 0           block13_pool[0][0]               
                                                                 batch_normalization_98[0][0]     
__________________________________________________________________________________________________
block14_sepconv1 (SeparableConv (None, 10, 10, 1536) 1582080     add_28[0][0]                     
__________________________________________________________________________________________________
block14_sepconv1_bn (BatchNorma (None, 10, 10, 1536) 6144        block14_sepconv1[0][0]           
__________________________________________________________________________________________________
block14_sepconv1_act (Activatio (None, 10, 10, 1536) 0           block14_sepconv1_bn[0][0]        
__________________________________________________________________________________________________
block14_sepconv2 (SeparableConv (None, 10, 10, 2048) 3159552     block14_sepconv1_act[0][0]       
__________________________________________________________________________________________________
block14_sepconv2_bn (BatchNorma (None, 10, 10, 2048) 8192        block14_sepconv2[0][0]           
__________________________________________________________________________________________________
block14_sepconv2_act (Activatio (None, 10, 10, 2048) 0           block14_sepconv2_bn[0][0]        
__________________________________________________________________________________________________
global_average_pooling2d_3 (Glo (None, 2048)         0           block14_sepconv2_act[0][0]       
__________________________________________________________________________________________________
dense_6 (Dense)                 (None, 4)            8196        global_average_pooling2d_3[0][0] 
==================================================================================================
Total params: 20,869,676
Trainable params: 62,724
Non-trainable params: 20,806,952
__________________________________________________________________________________________________
None
Train on 8 samples, validate on 20 samples
Epoch 1/3

2/8 [======>.......................] - ETA: 36s - loss: 1.5243 - acc: 0.0000e+00 - categorical_crossentropy: 1.5243
…
